'backend': 'tensorflow'
'keras_version': '2.11.0'
'model_config': '{"class_name": "Functional", "config": {"name": "model", "layers": [{"class_name": "InputLayer", "config": {"batch_input_shape": [null, 160, 160, 3], "dtype": "float32", "sparse": false, "ragged": false, "name": "input_1"}, "name": "input_1", "inbound_nodes": [], "shared_object_id": 0}, {"class_name": "Conv2D", "config": {"name": "Conv1", "trainable": false, "dtype": "float32", "filters": 32, "kernel_size": [3, 3], "strides": [2, 2], "padding": "same", "data_format": "channels_last", "dilation_rate": [1, 1], "groups": 1, "activation": "linear", "use_bias": false, "kernel_initializer": {"class_name": "GlorotUniform", "config": {"seed": null}, "shared_object_id": 1}, "bias_initializer": {"class_name": "Zeros", "config": {}, "shared_object_id": 2}, "kernel_regularizer": null, "bias_regularizer": null, "activity_regularizer": null, "kernel_constraint": null, "bias_constraint": null}, "name": "Conv1", "inbound_nodes": [[["input_1", 0, 0, {}]]], "shared_object_id": 3}, {"class_name": "BatchNormalization", "config": {"name": "bn_Conv1", "trainable": false, "dtype": "float32", "axis": [3], "momentum": 0.999, "epsilon": 0.001, "center": true, "scale": true, "beta_initializer": {"class_name": "Zeros", "config": {}, "shared_object_id": 4}, "gamma_initializer": {"class_name": "Ones", "config": {}, "shared_object_id": 5}, "moving_mean_initializer": {"class_name": "Zeros", "config": {}, "shared_object_id": 6}, "moving_variance_initializer": {"class_name": "Ones", "config": {}, "shared_object_id": 7}, "beta_regularizer": null, "gamma_regularizer": null, "beta_constraint": null, "gamma_constraint": null}, "name": "bn_Conv1", "inbound_nodes": [[["Conv1", 0, 0, {}]]], "shared_object_id": 8}, {"class_name": "ReLU", "config": {"name": "Conv1_relu", "trainable": false, "dtype": "float32", "max_value": 6.0, "negative_slope": 0.0, "threshold": 0.0}, "name": "Conv1_relu", "inbound_nodes": [[["bn_Conv1", 0, 0, {}]]], "shared_object_id": 9}, {"class_name": "DepthwiseConv2D", "config": {"name": "expanded_conv_depthwise", "trainable": false, "dtype": "float32", "kernel_size": [3, 3], "strides": [1, 1], "padding": "same", "data_format": "channels_last", "dilation_rate": [1, 1], "groups": 1, "activation": "linear", "use_bias": false, "bias_initializer": {"class_name": "Zeros", "config": {}, "shared_object_id": 11}, "bias_regularizer": null, "activity_regularizer": null, "bias_constraint": null, "depth_multiplier": 1, "depthwise_initializer": {"class_name": "GlorotUniform", "config": {"seed": null}, "shared_object_id": 12}, "depthwise_regularizer": null, "depthwise_constraint": null}, "name": "expanded_conv_depthwise", "inbound_nodes": [[["Conv1_relu", 0, 0, {}]]], "shared_object_id": 13}, {"class_name": "BatchNormalization", "config": {"name": "expanded_conv_depthwise_BN", "trainable": false, "dtype": "float32", "axis": [3], "momentum": 0.999, "epsilon": 0.001, "center": true, "scale": true, "beta_initializer": {"class_name": "Zeros", "config": {}, "shared_object_id": 14}, "gamma_initializer": {"class_name": "Ones", "config": {}, "shared_object_id": 15}, "moving_mean_initializer": {"class_name": "Zeros", "config": {}, "shared_object_id": 16}, "moving_variance_initializer": {"class_name": "Ones", "config": {}, "shared_object_id": 17}, "beta_regularizer": null, "gamma_regularizer": null, "beta_constraint": null, "gamma_constraint": null}, "name": "expanded_conv_depthwise_BN", "inbound_nodes": [[["expanded_conv_depthwise", 0, 0, {}]]], "shared_object_id": 18}, {"class_name": "ReLU", "config": {"name": "expanded_conv_depthwise_relu", "trainable": false, "dtype": "float32", "max_value": 6.0, "negative_slope": 0.0, "threshold": 0.0}, "name": "expanded_conv_depthwise_relu", "inbound_nodes": [[["expanded_conv_depthwise_BN", 0, 0, {}]]], "shared_object_id": 19}, {"class_name": "Conv2D", "config": {"name": "expanded_conv_project", "trainable": false, "dtype": "float32", "filters": 16, "kernel_size": [1, 1], "strides": [1, 1], "padding": "same", "data_format": "channels_last", "dilation_rate": [1, 1], "groups": 1, "activation": "linear", "use_bias": false, "kernel_initializer": {"class_name": "GlorotUniform", "config": {"seed": null}, "shared_object_id": 20}, "bias_initializer": {"class_name": "Zeros", "config": {}, "shared_object_id": 21}, "kernel_regularizer": null, "bias_regularizer": null, "activity_regularizer": null, "kernel_constraint": null, "bias_constraint": null}, "name": "expanded_conv_project", "inbound_nodes": [[["expanded_conv_depthwise_relu", 0, 0, {}]]], "shared_object_id": 22}, {"class_name": "BatchNormalization", "config": {"name": "expanded_conv_project_BN", "trainable": false, "dtype": "float32", "axis": [3], "momentum": 0.999, "epsilon": 0.001, "center": true, "scale": true, "beta_initializer": {"class_name": "Zeros", "config": {}, "shared_object_id": 23}, "gamma_initializer": {"class_name": "Ones", "config": {}, "shared_object_id": 24}, "moving_mean_initializer": {"class_name": "Zeros", "config": {}, "shared_object_id": 25}, "moving_variance_initializer": {"class_name": "Ones", "config": {}, "shared_object_id": 26}, "beta_regularizer": null, "gamma_regularizer": null, "beta_constraint": null, "gamma_constraint": null}, "name": "expanded_conv_project_BN", "inbound_nodes": [[["expanded_conv_project", 0, 0, {}]]], "shared_object_id": 27}, {"class_name": "Conv2D", "config": {"name": "block_1_expand", "trainable": false, "dtype": "float32", "filters": 96, "kernel_size": [1, 1], "strides": [1, 1], "padding": "same", "data_format": "channels_last", "dilation_rate": [1, 1], "groups": 1, "activation": "linear", "use_bias": false, "kernel_initializer": {"class_name": "GlorotUniform", "config": {"seed": null}, "shared_object_id": 28}, "bias_initializer": {"class_name": "Zeros", "config": {}, "shared_object_id": 29}, "kernel_regularizer": null, "bias_regularizer": null, "activity_regularizer": null, "kernel_constraint": null, "bias_constraint": null}, "name": "block_1_expand", "inbound_nodes": [[["expanded_conv_project_BN", 0, 0, {}]]], "shared_object_id": 30}, {"class_name": "BatchNormalization", "config": {"name": "block_1_expand_BN", "trainable": false, "dtype": "float32", "axis": [3], "momentum": 0.999, "epsilon": 0.001, "center": true, "scale": true, "beta_initializer": {"class_name": "Zeros", "config": {}, "shared_object_id": 31}, "gamma_initializer": {"class_name": "Ones", "config": {}, "shared_object_id": 32}, "moving_mean_initializer": {"class_name": "Zeros", "config": {}, "shared_object_id": 33}, "moving_variance_initializer": {"class_name": "Ones", "config": {}, "shared_object_id": 34}, "beta_regularizer": null, "gamma_regularizer": null, "beta_constraint": null, "gamma_constraint": null}, "name": "block_1_expand_BN", "inbound_nodes": [[["block_1_expand", 0, 0, {}]]], "shared_object_id": 35}, {"class_name": "ReLU", "config": {"name": "block_1_expand_relu", "trainable": false, "dtype": "float32", "max_value": 6.0, "negative_slope": 0.0, "threshold": 0.0}, "name": "block_1_expand_relu", "inbound_nodes": [[["block_1_expand_BN", 0, 0, {}]]], "shared_object_id": 36}, {"class_name": "ZeroPadding2D", "config": {"name": "block_1_pad", "trainable": false, "dtype": "float32", "padding": [[0, 1], [0, 1]], "data_format": "channels_last"}, "name": "block_1_pad", "inbound_nodes": [[["block_1_expand_relu", 0, 0, {}]]], "shared_object_id": 37}, {"class_name": "DepthwiseConv2D", "config": {"name": "block_1_depthwise", "trainable": false, "dtype": "float32", "kernel_size": [3, 3], "strides": [2, 2], "padding": "valid", "data_format": "channels_last", "dilation_rate": [1, 1], "groups": 1, "activation": "linear", "use_bias": false, "bias_initializer": {"class_name": "Zeros", "config": {}, "shared_object_id": 39}, "bias_regularizer": null, "activity_regularizer": null, "bias_constraint": null, "depth_multiplier": 1, "depthwise_initializer": {"class_name": "GlorotUniform", "config": {"seed": null}, "shared_object_id": 40}, "depthwise_regularizer": null, "depthwise_constraint": null}, "name": "block_1_depthwise", "inbound_nodes": [[["block_1_pad", 0, 0, {}]]], "shared_object_id": 41}, {"class_name": "BatchNormalization", "config": {"name": "block_1_depthwise_BN", "trainable": false, "dtype": "float32", "axis": [3], "momentum": 0.999, "epsilon": 0.001, "center": true, "scale": true, "beta_initializer": {"class_name": "Zeros", "config": {}, "shared_object_id": 42}, "gamma_initializer": {"class_name": "Ones", "config": {}, "shared_object_id": 43}, "moving_mean_initializer": {"class_name": "Zeros", "config": {}, "shared_object_id": 44}, "moving_variance_initializer": {"class_name": "Ones", "config": {}, "shared_object_id": 45}, "beta_regularizer": null, "gamma_regularizer": null, "beta_constraint": null, "gamma_constraint": null}, "name": "block_1_depthwise_BN", "inbound_nodes": [[["block_1_depthwise", 0, 0, {}]]], "shared_object_id": 46}, {"class_name": "ReLU", "config": {"name": "block_1_depthwise_relu", "trainable": false, "dtype": "float32", "max_value": 6.0, "negative_slope": 0.0, "threshold": 0.0}, "name": "block_1_depthwise_relu", "inbound_nodes": [[["block_1_depthwise_BN", 0, 0, {}]]], "shared_object_id": 47}, {"class_name": "Conv2D", "config": {"name": "block_1_project", "trainable": false, "dtype": "float32", "filters": 24, "kernel_size": [1, 1], "strides": [1, 1], "padding": "same", "data_format": "channels_last", "dilation_rate": [1, 1], "groups": 1, "activation": "linear", "use_bias": false, "kernel_initializer": {"class_name": "GlorotUniform", "config": {"seed": null}, "shared_object_id": 48}, "bias_initializer": {"class_name": "Zeros", "config": {}, "shared_object_id": 49}, "kernel_regularizer": null, "bias_regularizer": null, "activity_regularizer": null, "kernel_constraint": null, "bias_constraint": null}, "name": "block_1_project", "inbound_nodes": [[["block_1_depthwise_relu", 0, 0, {}]]], "shared_object_id": 50}, {"class_name": "BatchNormalization", "config": {"name": "block_1_project_BN", "trainable": false, "dtype": "float32", "axis": [3], "momentum": 0.999, "epsilon": 0.001, "center": true, "scale": true, "beta_initializer": {"class_name": "Zeros", "config": {}, "shared_object_id": 51}, "gamma_initializer": {"class_name": "Ones", "config": {}, "shared_object_id": 52}, "moving_mean_initializer": {"class_name": "Zeros", "config": {}, "shared_object_id": 53}, "moving_variance_initializer": {"class_name": "Ones", "config": {}, "shared_object_id": 54}, "beta_regularizer": null, "gamma_regularizer": null, "beta_constraint": null, "gamma_constraint": null}, "name": "block_1_project_BN", "inbound_nodes": [[["block_1_project", 0, 0, {}]]], "shared_object_id": 55}, {"class_name": "Conv2D", "config": {"name": "block_2_expand", "trainable": false, "dtype": "float32", "filters": 144, "kernel_size": [1, 1], "strides": [1, 1], "padding": "same", "data_format": "channels_last", "dilation_rate": [1, 1], "groups": 1, "activation": "linear", "use_bias": false, "kernel_initializer": {"class_name": "GlorotUniform", "config": {"seed": null}, "shared_object_id": 56}, "bias_initializer": {"class_name": "Zeros", "config": {}, "shared_object_id": 57}, "kernel_regularizer": null, "bias_regularizer": null, "activity_regularizer": null, "kernel_constraint": null, "bias_constraint": null}, "name": "block_2_expand", "inbound_nodes": [[["block_1_project_BN", 0, 0, {}]]], "shared_object_id": 58}, {"class_name": "BatchNormalization", "config": {"name": "block_2_expand_BN", "trainable": false, "dtype": "float32", "axis": [3], "momentum": 0.999, "epsilon": 0.001, "center": true, "scale": true, "beta_initializer": {"class_name": "Zeros", "config": {}, "shared_object_id": 59}, "gamma_initializer": {"class_name": "Ones", "config": {}, "shared_object_id": 60}, "moving_mean_initializer": {"class_name": "Zeros", "config": {}, "shared_object_id": 61}, "moving_variance_initializer": {"class_name": "Ones", "config": {}, "shared_object_id": 62}, "beta_regularizer": null, "gamma_regularizer": null, "beta_constraint": null, "gamma_constraint": null}, "name": "block_2_expand_BN", "inbound_nodes": [[["block_2_expand", 0, 0, {}]]], "shared_object_id": 63}, {"class_name": "ReLU", "config": {"name": "block_2_expand_relu", "trainable": false, "dtype": "float32", "max_value": 6.0, "negative_slope": 0.0, "threshold": 0.0}, "name": "block_2_expand_relu", "inbound_nodes": [[["block_2_expand_BN", 0, 0, {}]]], "shared_object_id": 64}, {"class_name": "DepthwiseConv2D", "config": {"name": "block_2_depthwise", "trainable": false, "dtype": "float32", "kernel_size": [3, 3], "strides": [1, 1], "padding": "same", "data_format": "channels_last", "dilation_rate": [1, 1], "groups": 1, "activation": "linear", "use_bias": false, "bias_initializer": {"class_name": "Zeros", "config": {}, "shared_object_id": 66}, "bias_regularizer": null, "activity_regularizer": null, "bias_constraint": null, "depth_multiplier": 1, "depthwise_initializer": {"class_name": "GlorotUniform", "config": {"seed": null}, "shared_object_id": 67}, "depthwise_regularizer": null, "depthwise_constraint": null}, "name": "block_2_depthwise", "inbound_nodes": [[["block_2_expand_relu", 0, 0, {}]]], "shared_object_id": 68}, {"class_name": "BatchNormalization", "config": {"name": "block_2_depthwise_BN", "trainable": false, "dtype": "float32", "axis": [3], "momentum": 0.999, "epsilon": 0.001, "center": true, "scale": true, "beta_initializer": {"class_name": "Zeros", "config": {}, "shared_object_id": 69}, "gamma_initializer": {"class_name": "Ones", "config": {}, "shared_object_id": 70}, "moving_mean_initializer": {"class_name": "Zeros", "config": {}, "shared_object_id": 71}, "moving_variance_initializer": {"class_name": "Ones", "config": {}, "shared_object_id": 72}, "beta_regularizer": null, "gamma_regularizer": null, "beta_constraint": null, "gamma_constraint": null}, "name": "block_2_depthwise_BN", "inbound_nodes": [[["block_2_depthwise", 0, 0, {}]]], "shared_object_id": 73}, {"class_name": "ReLU", "config": {"name": "block_2_depthwise_relu", "trainable": false, "dtype": "float32", "max_value": 6.0, "negative_slope": 0.0, "threshold": 0.0}, "name": "block_2_depthwise_relu", "inbound_nodes": [[["block_2_depthwise_BN", 0, 0, {}]]], "shared_object_id": 74}, {"class_name": "Conv2D", "config": {"name": "block_2_project", "trainable": false, "dtype": "float32", "filters": 24, "kernel_size": [1, 1], "strides": [1, 1], "padding": "same", "data_format": "channels_last", "dilation_rate": [1, 1], "groups": 1, "activation": "linear", "use_bias": false, "kernel_initializer": {"class_name": "GlorotUniform", "config": {"seed": null}, "shared_object_id": 75}, "bias_initializer": {"class_name": "Zeros", "config": {}, "shared_object_id": 76}, "kernel_regularizer": null, "bias_regularizer": null, "activity_regularizer": null, "kernel_constraint": null, "bias_constraint": null}, "name": "block_2_project", "inbound_nodes": [[["block_2_depthwise_relu", 0, 0, {}]]], "shared_object_id": 77}, {"class_name": "BatchNormalization", "config": {"name": "block_2_project_BN", "trainable": false, "dtype": "float32", "axis": [3], "momentum": 0.999, "epsilon": 0.001, "center": true, "scale": true, "beta_initializer": {"class_name": "Zeros", "config": {}, "shared_object_id": 78}, "gamma_initializer": {"class_name": "Ones", "config": {}, "shared_object_id": 79}, "moving_mean_initializer": {"class_name": "Zeros", "config": {}, "shared_object_id": 80}, "moving_variance_initializer": {"class_name": "Ones", "config": {}, "shared_object_id": 81}, "beta_regularizer": null, "gamma_regularizer": null, "beta_constraint": null, "gamma_constraint": null}, "name": "block_2_project_BN", "inbound_nodes": [[["block_2_project", 0, 0, {}]]], "shared_object_id": 82}, {"class_name": "Add", "config": {"name": "block_2_add", "trainable": false, "dtype": "float32"}, "name": "block_2_add", "inbound_nodes": [[["block_1_project_BN", 0, 0, {}], ["block_2_project_BN", 0, 0, {}]]], "shared_object_id": 83}, {"class_name": "Conv2D", "config": {"name": "block_3_expand", "trainable": false, "dtype": "float32", "filters": 144, "kernel_size": [1, 1], "strides": [1, 1], "padding": "same", "data_format": "channels_last", "dilation_rate": [1, 1], "groups": 1, "activation": "linear", "use_bias": false, "kernel_initializer": {"class_name": "GlorotUniform", "config": {"seed": null}, "shared_object_id": 84}, "bias_initializer": {"class_name": "Zeros", "config": {}, "shared_object_id": 85}, "kernel_regularizer": null, "bias_regularizer": null, "activity_regularizer": null, "kernel_constraint": null, "bias_constraint": null}, "name": "block_3_expand", "inbound_nodes": [[["block_2_add", 0, 0, {}]]], "shared_object_id": 86}, {"class_name": "BatchNormalization", "config": {"name": "block_3_expand_BN", "trainable": false, "dtype": "float32", "axis": [3], "momentum": 0.999, "epsilon": 0.001, "center": true, "scale": true, "beta_initializer": {"class_name": "Zeros", "config": {}, "shared_object_id": 87}, "gamma_initializer": {"class_name": "Ones", "config": {}, "shared_object_id": 88}, "moving_mean_initializer": {"class_name": "Zeros", "config": {}, "shared_object_id": 89}, "moving_variance_initializer": {"class_name": "Ones", "config": {}, "shared_object_id": 90}, "beta_regularizer": null, "gamma_regularizer": null, "beta_constraint": null, "gamma_constraint": null}, "name": "block_3_expand_BN", "inbound_nodes": [[["block_3_expand", 0, 0, {}]]], "shared_object_id": 91}, {"class_name": "ReLU", "config": {"name": "block_3_expand_relu", "trainable": false, "dtype": "float32", "max_value": 6.0, "negative_slope": 0.0, "threshold": 0.0}, "name": "block_3_expand_relu", "inbound_nodes": [[["block_3_expand_BN", 0, 0, {}]]], "shared_object_id": 92}, {"class_name": "ZeroPadding2D", "config": {"name": "block_3_pad", "trainable": false, "dtype": "float32", "padding": [[0, 1], [0, 1]], "data_format": "channels_last"}, "name": "block_3_pad", "inbound_nodes": [[["block_3_expand_relu", 0, 0, {}]]], "shared_object_id": 93}, {"class_name": "DepthwiseConv2D", "config": {"name": "block_3_depthwise", "trainable": false, "dtype": "float32", "kernel_size": [3, 3], "strides": [2, 2], "padding": "valid", "data_format": "channels_last", "dilation_rate": [1, 1], "groups": 1, "activation": "linear", "use_bias": false, "bias_initializer": {"class_name": "Zeros", "config": {}, "shared_object_id": 95}, "bias_regularizer": null, "activity_regularizer": null, "bias_constraint": null, "depth_multiplier": 1, "depthwise_initializer": {"class_name": "GlorotUniform", "config": {"seed": null}, "shared_object_id": 96}, "depthwise_regularizer": null, "depthwise_constraint": null}, "name": "block_3_depthwise", "inbound_nodes": [[["block_3_pad", 0, 0, {}]]], "shared_object_id": 97}, {"class_name": "BatchNormalization", "config": {"name": "block_3_depthwise_BN", "trainable": false, "dtype": "float32", "axis": [3], "momentum": 0.999, "epsilon": 0.001, "center": true, "scale": true, "beta_initializer": {"class_name": "Zeros", "config": {}, "shared_object_id": 98}, "gamma_initializer": {"class_name": "Ones", "config": {}, "shared_object_id": 99}, "moving_mean_initializer": {"class_name": "Zeros", "config": {}, "shared_object_id": 100}, "moving_variance_initializer": {"class_name": "Ones", "config": {}, "shared_object_id": 101}, "beta_regularizer": null, "gamma_regularizer": null, "beta_constraint": null, "gamma_constraint": null}, "name": "block_3_depthwise_BN", "inbound_nodes": [[["block_3_depthwise", 0, 0, {}]]], "shared_object_id": 102}, {"class_name": "ReLU", "config": {"name": "block_3_depthwise_relu", "trainable": false, "dtype": "float32", "max_value": 6.0, "negative_slope": 0.0, "threshold": 0.0}, "name": "block_3_depthwise_relu", "inbound_nodes": [[["block_3_depthwise_BN", 0, 0, {}]]], "shared_object_id": 103}, {"class_name": "Conv2D", "config": {"name": "block_3_project", "trainable": false, "dtype": "float32", "filters": 32, "kernel_size": [1, 1], "strides": [1, 1], "padding": "same", "data_format": "channels_last", "dilation_rate": [1, 1], "groups": 1, "activation": "linear", "use_bias": false, "kernel_initializer": {"class_name": "GlorotUniform", "config": {"seed": null}, "shared_object_id": 104}, "bias_initializer": {"class_name": "Zeros", "config": {}, "shared_object_id": 105}, "kernel_regularizer": null, "bias_regularizer": null, "activity_regularizer": null, "kernel_constraint": null, "bias_constraint": null}, "name": "block_3_project", "inbound_nodes": [[["block_3_depthwise_relu", 0, 0, {}]]], "shared_object_id": 106}, {"class_name": "BatchNormalization", "config": {"name": "block_3_project_BN", "trainable": false, "dtype": "float32", "axis": [3], "momentum": 0.999, "epsilon": 0.001, "center": true, "scale": true, "beta_initializer": {"class_name": "Zeros", "config": {}, "shared_object_id": 107}, "gamma_initializer": {"class_name": "Ones", "config": {}, "shared_object_id": 108}, "moving_mean_initializer": {"class_name": "Zeros", "config": {}, "shared_object_id": 109}, "moving_variance_initializer": {"class_name": "Ones", "config": {}, "shared_object_id": 110}, "beta_regularizer": null, "gamma_regularizer": null, "beta_constraint": null, "gamma_constraint": null}, "name": "block_3_project_BN", "inbound_nodes": [[["block_3_project", 0, 0, {}]]], "shared_object_id": 111}, {"class_name": "Conv2D", "config": {"name": "block_4_expand", "trainable": false, "dtype": "float32", "filters": 192, "kernel_size": [1, 1], "strides": [1, 1], "padding": "same", "data_format": "channels_last", "dilation_rate": [1, 1], "groups": 1, "activation": "linear", "use_bias": false, "kernel_initializer": {"class_name": "GlorotUniform", "config": {"seed": null}, "shared_object_id": 112}, "bias_initializer": {"class_name": "Zeros", "config": {}, "shared_object_id": 113}, "kernel_regularizer": null, "bias_regularizer": null, "activity_regularizer": null, "kernel_constraint": null, "bias_constraint": null}, "name": "block_4_expand", "inbound_nodes": [[["block_3_project_BN", 0, 0, {}]]], "shared_object_id": 114}, {"class_name": "BatchNormalization", "config": {"name": "block_4_expand_BN", "trainable": false, "dtype": "float32", "axis": [3], "momentum": 0.999, "epsilon": 0.001, "center": true, "scale": true, "beta_initializer": {"class_name": "Zeros", "config": {}, "shared_object_id": 115}, "gamma_initializer": {"class_name": "Ones", "config": {}, "shared_object_id": 116}, "moving_mean_initializer": {"class_name": "Zeros", "config": {}, "shared_object_id": 117}, "moving_variance_initializer": {"class_name": "Ones", "config": {}, "shared_object_id": 118}, "beta_regularizer": null, "gamma_regularizer": null, "beta_constraint": null, "gamma_constraint": null}, "name": "block_4_expand_BN", "inbound_nodes": [[["block_4_expand", 0, 0, {}]]], "shared_object_id": 119}, {"class_name": "ReLU", "config": {"name": "block_4_expand_relu", "trainable": false, "dtype": "float32", "max_value": 6.0, "negative_slope": 0.0, "threshold": 0.0}, "name": "block_4_expand_relu", "inbound_nodes": [[["block_4_expand_BN", 0, 0, {}]]], "shared_object_id": 120}, {"class_name": "DepthwiseConv2D", "config": {"name": "block_4_depthwise", "trainable": false, "dtype": "float32", "kernel_size": [3, 3], "strides": [1, 1], "padding": "same", "data_format": "channels_last", "dilation_rate": [1, 1], "groups": 1, "activation": "linear", "use_bias": false, "bias_initializer": {"class_name": "Zeros", "config": {}, "shared_object_id": 122}, "bias_regularizer": null, "activity_regularizer": null, "bias_constraint": null, "depth_multiplier": 1, "depthwise_initializer": {"class_name": "GlorotUniform", "config": {"seed": null}, "shared_object_id": 123}, "depthwise_regularizer": null, "depthwise_constraint": null}, "name": "block_4_depthwise", "inbound_nodes": [[["block_4_expand_relu", 0, 0, {}]]], "shared_object_id": 124}, {"class_name": "BatchNormalization", "config": {"name": "block_4_depthwise_BN", "trainable": false, "dtype": "float32", "axis": [3], "momentum": 0.999, "epsilon": 0.001, "center": true, "scale": true, "beta_initializer": {"class_name": "Zeros", "config": {}, "shared_object_id": 125}, "gamma_initializer": {"class_name": "Ones", "config": {}, "shared_object_id": 126}, "moving_mean_initializer": {"class_name": "Zeros", "config": {}, "shared_object_id": 127}, "moving_variance_initializer": {"class_name": "Ones", "config": {}, "shared_object_id": 128}, "beta_regularizer": null, "gamma_regularizer": null, "beta_constraint": null, "gamma_constraint": null}, "name": "block_4_depthwise_BN", "inbound_nodes": [[["block_4_depthwise", 0, 0, {}]]], "shared_object_id": 129}, {"class_name": "ReLU", "config": {"name": "block_4_depthwise_relu", "trainable": false, "dtype": "float32", "max_value": 6.0, "negative_slope": 0.0, "threshold": 0.0}, "name": "block_4_depthwise_relu", "inbound_nodes": [[["block_4_depthwise_BN", 0, 0, {}]]], "shared_object_id": 130}, {"class_name": "Conv2D", "config": {"name": "block_4_project", "trainable": false, "dtype": "float32", "filters": 32, "kernel_size": [1, 1], "strides": [1, 1], "padding": "same", "data_format": "channels_last", "dilation_rate": [1, 1], "groups": 1, "activation": "linear", "use_bias": false, "kernel_initializer": {"class_name": "GlorotUniform", "config": {"seed": null}, "shared_object_id": 131}, "bias_initializer": {"class_name": "Zeros", "config": {}, "shared_object_id": 132}, "kernel_regularizer": null, "bias_regularizer": null, "activity_regularizer": null, "kernel_constraint": null, "bias_constraint": null}, "name": "block_4_project", "inbound_nodes": [[["block_4_depthwise_relu", 0, 0, {}]]], "shared_object_id": 133}, {"class_name": "BatchNormalization", "config": {"name": "block_4_project_BN", "trainable": false, "dtype": "float32", "axis": [3], "momentum": 0.999, "epsilon": 0.001, "center": true, "scale": true, "beta_initializer": {"class_name": "Zeros", "config": {}, "shared_object_id": 134}, "gamma_initializer": {"class_name": "Ones", "config": {}, "shared_object_id": 135}, "moving_mean_initializer": {"class_name": "Zeros", "config": {}, "shared_object_id": 136}, "moving_variance_initializer": {"class_name": "Ones", "config": {}, "shared_object_id": 137}, "beta_regularizer": null, "gamma_regularizer": null, "beta_constraint": null, "gamma_constraint": null}, "name": "block_4_project_BN", "inbound_nodes": [[["block_4_project", 0, 0, {}]]], "shared_object_id": 138}, {"class_name": "Add", "config": {"name": "block_4_add", "trainable": false, "dtype": "float32"}, "name": "block_4_add", "inbound_nodes": [[["block_3_project_BN", 0, 0, {}], ["block_4_project_BN", 0, 0, {}]]], "shared_object_id": 139}, {"class_name": "Conv2D", "config": {"name": "block_5_expand", "trainable": false, "dtype": "float32", "filters": 192, "kernel_size": [1, 1], "strides": [1, 1], "padding": "same", "data_format": "channels_last", "dilation_rate": [1, 1], "groups": 1, "activation": "linear", "use_bias": false, "kernel_initializer": {"class_name": "GlorotUniform", "config": {"seed": null}, "shared_object_id": 140}, "bias_initializer": {"class_name": "Zeros", "config": {}, "shared_object_id": 141}, "kernel_regularizer": null, "bias_regularizer": null, "activity_regularizer": null, "kernel_constraint": null, "bias_constraint": null}, "name": "block_5_expand", "inbound_nodes": [[["block_4_add", 0, 0, {}]]], "shared_object_id": 142}, {"class_name": "BatchNormalization", "config": {"name": "block_5_expand_BN", "trainable": false, "dtype": "float32", "axis": [3], "momentum": 0.999, "epsilon": 0.001, "center": true, "scale": true, "beta_initializer": {"class_name": "Zeros", "config": {}, "shared_object_id": 143}, "gamma_initializer": {"class_name": "Ones", "config": {}, "shared_object_id": 144}, "moving_mean_initializer": {"class_name": "Zeros", "config": {}, "shared_object_id": 145}, "moving_variance_initializer": {"class_name": "Ones", "config": {}, "shared_object_id": 146}, "beta_regularizer": null, "gamma_regularizer": null, "beta_constraint": null, "gamma_constraint": null}, "name": "block_5_expand_BN", "inbound_nodes": [[["block_5_expand", 0, 0, {}]]], "shared_object_id": 147}, {"class_name": "ReLU", "config": {"name": "block_5_expand_relu", "trainable": false, "dtype": "float32", "max_value": 6.0, "negative_slope": 0.0, "threshold": 0.0}, "name": "block_5_expand_relu", "inbound_nodes": [[["block_5_expand_BN", 0, 0, {}]]], "shared_object_id": 148}, {"class_name": "DepthwiseConv2D", "config": {"name": "block_5_depthwise", "trainable": false, "dtype": "float32", "kernel_size": [3, 3], "strides": [1, 1], "padding": "same", "data_format": "channels_last", "dilation_rate": [1, 1], "groups": 1, "activation": "linear", "use_bias": false, "bias_initializer": {"class_name": "Zeros", "config": {}, "shared_object_id": 150}, "bias_regularizer": null, "activity_regularizer": null, "bias_constraint": null, "depth_multiplier": 1, "depthwise_initializer": {"class_name": "GlorotUniform", "config": {"seed": null}, "shared_object_id": 151}, "depthwise_regularizer": null, "depthwise_constraint": null}, "name": "block_5_depthwise", "inbound_nodes": [[["block_5_expand_relu", 0, 0, {}]]], "shared_object_id": 152}, {"class_name": "BatchNormalization", "config": {"name": "block_5_depthwise_BN", "trainable": false, "dtype": "float32", "axis": [3], "momentum": 0.999, "epsilon": 0.001, "center": true, "scale": true, "beta_initializer": {"class_name": "Zeros", "config": {}, "shared_object_id": 153}, "gamma_initializer": {"class_name": "Ones", "config": {}, "shared_object_id": 154}, "moving_mean_initializer": {"class_name": "Zeros", "config": {}, "shared_object_id": 155}, "moving_variance_initializer": {"class_name": "Ones", "config": {}, "shared_object_id": 156}, "beta_regularizer": null, "gamma_regularizer": null, "beta_constraint": null, "gamma_constraint": null}, "name": "block_5_depthwise_BN", "inbound_nodes": [[["block_5_depthwise", 0, 0, {}]]], "shared_object_id": 157}, {"class_name": "ReLU", "config": {"name": "block_5_depthwise_relu", "trainable": false, "dtype": "float32", "max_value": 6.0, "negative_slope": 0.0, "threshold": 0.0}, "name": "block_5_depthwise_relu", "inbound_nodes": [[["block_5_depthwise_BN", 0, 0, {}]]], "shared_object_id": 158}, {"class_name": "Conv2D", "config": {"name": "block_5_project", "trainable": false, "dtype": "float32", "filters": 32, "kernel_size": [1, 1], "strides": [1, 1], "padding": "same", "data_format": "channels_last", "dilation_rate": [1, 1], "groups": 1, "activation": "linear", "use_bias": false, "kernel_initializer": {"class_name": "GlorotUniform", "config": {"seed": null}, "shared_object_id": 159}, "bias_initializer": {"class_name": "Zeros", "config": {}, "shared_object_id": 160}, "kernel_regularizer": null, "bias_regularizer": null, "activity_regularizer": null, "kernel_constraint": null, "bias_constraint": null}, "name": "block_5_project", "inbound_nodes": [[["block_5_depthwise_relu", 0, 0, {}]]], "shared_object_id": 161}, {"class_name": "BatchNormalization", "config": {"name": "block_5_project_BN", "trainable": false, "dtype": "float32", "axis": [3], "momentum": 0.999, "epsilon": 0.001, "center": true, "scale": true, "beta_initializer": {"class_name": "Zeros", "config": {}, "shared_object_id": 162}, "gamma_initializer": {"class_name": "Ones", "config": {}, "shared_object_id": 163}, "moving_mean_initializer": {"class_name": "Zeros", "config": {}, "shared_object_id": 164}, "moving_variance_initializer": {"class_name": "Ones", "config": {}, "shared_object_id": 165}, "beta_regularizer": null, "gamma_regularizer": null, "beta_constraint": null, "gamma_constraint": null}, "name": "block_5_project_BN", "inbound_nodes": [[["block_5_project", 0, 0, {}]]], "shared_object_id": 166}, {"class_name": "Add", "config": {"name": "block_5_add", "trainable": false, "dtype": "float32"}, "name": "block_5_add", "inbound_nodes": [[["block_4_add", 0, 0, {}], ["block_5_project_BN", 0, 0, {}]]], "shared_object_id": 167}, {"class_name": "Conv2D", "config": {"name": "block_6_expand", "trainable": false, "dtype": "float32", "filters": 192, "kernel_size": [1, 1], "strides": [1, 1], "padding": "same", "data_format": "channels_last", "dilation_rate": [1, 1], "groups": 1, "activation": "linear", "use_bias": false, "kernel_initializer": {"class_name": "GlorotUniform", "config": {"seed": null}, "shared_object_id": 168}, "bias_initializer": {"class_name": "Zeros", "config": {}, "shared_object_id": 169}, "kernel_regularizer": null, "bias_regularizer": null, "activity_regularizer": null, "kernel_constraint": null, "bias_constraint": null}, "name": "block_6_expand", "inbound_nodes": [[["block_5_add", 0, 0, {}]]], "shared_object_id": 170}, {"class_name": "BatchNormalization", "config": {"name": "block_6_expand_BN", "trainable": false, "dtype": "float32", "axis": [3], "momentum": 0.999, "epsilon": 0.001, "center": true, "scale": true, "beta_initializer": {"class_name": "Zeros", "config": {}, "shared_object_id": 171}, "gamma_initializer": {"class_name": "Ones", "config": {}, "shared_object_id": 172}, "moving_mean_initializer": {"class_name": "Zeros", "config": {}, "shared_object_id": 173}, "moving_variance_initializer": {"class_name": "Ones", "config": {}, "shared_object_id": 174}, "beta_regularizer": null, "gamma_regularizer": null, "beta_constraint": null, "gamma_constraint": null}, "name": "block_6_expand_BN", "inbound_nodes": [[["block_6_expand", 0, 0, {}]]], "shared_object_id": 175}, {"class_name": "ReLU", "config": {"name": "block_6_expand_relu", "trainable": false, "dtype": "float32", "max_value": 6.0, "negative_slope": 0.0, "threshold": 0.0}, "name": "block_6_expand_relu", "inbound_nodes": [[["block_6_expand_BN", 0, 0, {}]]], "shared_object_id": 176}, {"class_name": "ZeroPadding2D", "config": {"name": "block_6_pad", "trainable": false, "dtype": "float32", "padding": [[0, 1], [0, 1]], "data_format": "channels_last"}, "name": "block_6_pad", "inbound_nodes": [[["block_6_expand_relu", 0, 0, {}]]], "shared_object_id": 177}, {"class_name": "DepthwiseConv2D", "config": {"name": "block_6_depthwise", "trainable": false, "dtype": "float32", "kernel_size": [3, 3], "strides": [2, 2], "padding": "valid", "data_format": "channels_last", "dilation_rate": [1, 1], "groups": 1, "activation": "linear", "use_bias": false, "bias_initializer": {"class_name": "Zeros", "config": {}, "shared_object_id": 179}, "bias_regularizer": null, "activity_regularizer": null, "bias_constraint": null, "depth_multiplier": 1, "depthwise_initializer": {"class_name": "GlorotUniform", "config": {"seed": null}, "shared_object_id": 180}, "depthwise_regularizer": null, "depthwise_constraint": null}, "name": "block_6_depthwise", "inbound_nodes": [[["block_6_pad", 0, 0, {}]]], "shared_object_id": 181}, {"class_name": "BatchNormalization", "config": {"name": "block_6_depthwise_BN", "trainable": false, "dtype": "float32", "axis": [3], "momentum": 0.999, "epsilon": 0.001, "center": true, "scale": true, "beta_initializer": {"class_name": "Zeros", "config": {}, "shared_object_id": 182}, "gamma_initializer": {"class_name": "Ones", "config": {}, "shared_object_id": 183}, "moving_mean_initializer": {"class_name": "Zeros", "config": {}, "shared_object_id": 184}, "moving_variance_initializer": {"class_name": "Ones", "config": {}, "shared_object_id": 185}, "beta_regularizer": null, "gamma_regularizer": null, "beta_constraint": null, "gamma_constraint": null}, "name": "block_6_depthwise_BN", "inbound_nodes": [[["block_6_depthwise", 0, 0, {}]]], "shared_object_id": 186}, {"class_name": "ReLU", "config": {"name": "block_6_depthwise_relu", "trainable": false, "dtype": "float32", "max_value": 6.0, "negative_slope": 0.0, "threshold": 0.0}, "name": "block_6_depthwise_relu", "inbound_nodes": [[["block_6_depthwise_BN", 0, 0, {}]]], "shared_object_id": 187}, {"class_name": "Conv2D", "config": {"name": "block_6_project", "trainable": false, "dtype": "float32", "filters": 64, "kernel_size": [1, 1], "strides": [1, 1], "padding": "same", "data_format": "channels_last", "dilation_rate": [1, 1], "groups": 1, "activation": "linear", "use_bias": false, "kernel_initializer": {"class_name": "GlorotUniform", "config": {"seed": null}, "shared_object_id": 188}, "bias_initializer": {"class_name": "Zeros", "config": {}, "shared_object_id": 189}, "kernel_regularizer": null, "bias_regularizer": null, "activity_regularizer": null, "kernel_constraint": null, "bias_constraint": null}, "name": "block_6_project", "inbound_nodes": [[["block_6_depthwise_relu", 0, 0, {}]]], "shared_object_id": 190}, {"class_name": "BatchNormalization", "config": {"name": "block_6_project_BN", "trainable": false, "dtype": "float32", "axis": [3], "momentum": 0.999, "epsilon": 0.001, "center": true, "scale": true, "beta_initializer": {"class_name": "Zeros", "config": {}, "shared_object_id": 191}, "gamma_initializer": {"class_name": "Ones", "config": {}, "shared_object_id": 192}, "moving_mean_initializer": {"class_name": "Zeros", "config": {}, "shared_object_id": 193}, "moving_variance_initializer": {"class_name": "Ones", "config": {}, "shared_object_id": 194}, "beta_regularizer": null, "gamma_regularizer": null, "beta_constraint": null, "gamma_constraint": null}, "name": "block_6_project_BN", "inbound_nodes": [[["block_6_project", 0, 0, {}]]], "shared_object_id": 195}, {"class_name": "Conv2D", "config": {"name": "block_7_expand", "trainable": false, "dtype": "float32", "filters": 384, "kernel_size": [1, 1], "strides": [1, 1], "padding": "same", "data_format": "channels_last", "dilation_rate": [1, 1], "groups": 1, "activation": "linear", "use_bias": false, "kernel_initializer": {"class_name": "GlorotUniform", "config": {"seed": null}, "shared_object_id": 196}, "bias_initializer": {"class_name": "Zeros", "config": {}, "shared_object_id": 197}, "kernel_regularizer": null, "bias_regularizer": null, "activity_regularizer": null, "kernel_constraint": null, "bias_constraint": null}, "name": "block_7_expand", "inbound_nodes": [[["block_6_project_BN", 0, 0, {}]]], "shared_object_id": 198}, {"class_name": "BatchNormalization", "config": {"name": "block_7_expand_BN", "trainable": false, "dtype": "float32", "axis": [3], "momentum": 0.999, "epsilon": 0.001, "center": true, "scale": true, "beta_initializer": {"class_name": "Zeros", "config": {}, "shared_object_id": 199}, "gamma_initializer": {"class_name": "Ones", "config": {}, "shared_object_id": 200}, "moving_mean_initializer": {"class_name": "Zeros", "config": {}, "shared_object_id": 201}, "moving_variance_initializer": {"class_name": "Ones", "config": {}, "shared_object_id": 202}, "beta_regularizer": null, "gamma_regularizer": null, "beta_constraint": null, "gamma_constraint": null}, "name": "block_7_expand_BN", "inbound_nodes": [[["block_7_expand", 0, 0, {}]]], "shared_object_id": 203}, {"class_name": "ReLU", "config": {"name": "block_7_expand_relu", "trainable": false, "dtype": "float32", "max_value": 6.0, "negative_slope": 0.0, "threshold": 0.0}, "name": "block_7_expand_relu", "inbound_nodes": [[["block_7_expand_BN", 0, 0, {}]]], "shared_object_id": 204}, {"class_name": "DepthwiseConv2D", "config": {"name": "block_7_depthwise", "trainable": false, "dtype": "float32", "kernel_size": [3, 3], "strides": [1, 1], "padding": "same", "data_format": "channels_last", "dilation_rate": [1, 1], "groups": 1, "activation": "linear", "use_bias": false, "bias_initializer": {"class_name": "Zeros", "config": {}, "shared_object_id": 206}, "bias_regularizer": null, "activity_regularizer": null, "bias_constraint": null, "depth_multiplier": 1, "depthwise_initializer": {"class_name": "GlorotUniform", "config": {"seed": null}, "shared_object_id": 207}, "depthwise_regularizer": null, "depthwise_constraint": null}, "name": "block_7_depthwise", "inbound_nodes": [[["block_7_expand_relu", 0, 0, {}]]], "shared_object_id": 208}, {"class_name": "BatchNormalization", "config": {"name": "block_7_depthwise_BN", "trainable": false, "dtype": "float32", "axis": [3], "momentum": 0.999, "epsilon": 0.001, "center": true, "scale": true, "beta_initializer": {"class_name": "Zeros", "config": {}, "shared_object_id": 209}, "gamma_initializer": {"class_name": "Ones", "config": {}, "shared_object_id": 210}, "moving_mean_initializer": {"class_name": "Zeros", "config": {}, "shared_object_id": 211}, "moving_variance_initializer": {"class_name": "Ones", "config": {}, "shared_object_id": 212}, "beta_regularizer": null, "gamma_regularizer": null, "beta_constraint": null, "gamma_constraint": null}, "name": "block_7_depthwise_BN", "inbound_nodes": [[["block_7_depthwise", 0, 0, {}]]], "shared_object_id": 213}, {"class_name": "ReLU", "config": {"name": "block_7_depthwise_relu", "trainable": false, "dtype": "float32", "max_value": 6.0, "negative_slope": 0.0, "threshold": 0.0}, "name": "block_7_depthwise_relu", "inbound_nodes": [[["block_7_depthwise_BN", 0, 0, {}]]], "shared_object_id": 214}, {"class_name": "Conv2D", "config": {"name": "block_7_project", "trainable": false, "dtype": "float32", "filters": 64, "kernel_size": [1, 1], "strides": [1, 1], "padding": "same", "data_format": "channels_last", "dilation_rate": [1, 1], "groups": 1, "activation": "linear", "use_bias": false, "kernel_initializer": {"class_name": "GlorotUniform", "config": {"seed": null}, "shared_object_id": 215}, "bias_initializer": {"class_name": "Zeros", "config": {}, "shared_object_id": 216}, "kernel_regularizer": null, "bias_regularizer": null, "activity_regularizer": null, "kernel_constraint": null, "bias_constraint": null}, "name": "block_7_project", "inbound_nodes": [[["block_7_depthwise_relu", 0, 0, {}]]], "shared_object_id": 217}, {"class_name": "BatchNormalization", "config": {"name": "block_7_project_BN", "trainable": false, "dtype": "float32", "axis": [3], "momentum": 0.999, "epsilon": 0.001, "center": true, "scale": true, "beta_initializer": {"class_name": "Zeros", "config": {}, "shared_object_id": 218}, "gamma_initializer": {"class_name": "Ones", "config": {}, "shared_object_id": 219}, "moving_mean_initializer": {"class_name": "Zeros", "config": {}, "shared_object_id": 220}, "moving_variance_initializer": {"class_name": "Ones", "config": {}, "shared_object_id": 221}, "beta_regularizer": null, "gamma_regularizer": null, "beta_constraint": null, "gamma_constraint": null}, "name": "block_7_project_BN", "inbound_nodes": [[["block_7_project", 0, 0, {}]]], "shared_object_id": 222}, {"class_name": "Add", "config": {"name": "block_7_add", "trainable": false, "dtype": "float32"}, "name": "block_7_add", "inbound_nodes": [[["block_6_project_BN", 0, 0, {}], ["block_7_project_BN", 0, 0, {}]]], "shared_object_id": 223}, {"class_name": "Conv2D", "config": {"name": "block_8_expand", "trainable": false, "dtype": "float32", "filters": 384, "kernel_size": [1, 1], "strides": [1, 1], "padding": "same", "data_format": "channels_last", "dilation_rate": [1, 1], "groups": 1, "activation": "linear", "use_bias": false, "kernel_initializer": {"class_name": "GlorotUniform", "config": {"seed": null}, "shared_object_id": 224}, "bias_initializer": {"class_name": "Zeros", "config": {}, "shared_object_id": 225}, "kernel_regularizer": null, "bias_regularizer": null, "activity_regularizer": null, "kernel_constraint": null, "bias_constraint": null}, "name": "block_8_expand", "inbound_nodes": [[["block_7_add", 0, 0, {}]]], "shared_object_id": 226}, {"class_name": "BatchNormalization", "config": {"name": "block_8_expand_BN", "trainable": false, "dtype": "float32", "axis": [3], "momentum": 0.999, "epsilon": 0.001, "center": true, "scale": true, "beta_initializer": {"class_name": "Zeros", "config": {}, "shared_object_id": 227}, "gamma_initializer": {"class_name": "Ones", "config": {}, "shared_object_id": 228}, "moving_mean_initializer": {"class_name": "Zeros", "config": {}, "shared_object_id": 229}, "moving_variance_initializer": {"class_name": "Ones", "config": {}, "shared_object_id": 230}, "beta_regularizer": null, "gamma_regularizer": null, "beta_constraint": null, "gamma_constraint": null}, "name": "block_8_expand_BN", "inbound_nodes": [[["block_8_expand", 0, 0, {}]]], "shared_object_id": 231}, {"class_name": "ReLU", "config": {"name": "block_8_expand_relu", "trainable": false, "dtype": "float32", "max_value": 6.0, "negative_slope": 0.0, "threshold": 0.0}, "name": "block_8_expand_relu", "inbound_nodes": [[["block_8_expand_BN", 0, 0, {}]]], "shared_object_id": 232}, {"class_name": "DepthwiseConv2D", "config": {"name": "block_8_depthwise", "trainable": false, "dtype": "float32", "kernel_size": [3, 3], "strides": [1, 1], "padding": "same", "data_format": "channels_last", "dilation_rate": [1, 1], "groups": 1, "activation": "linear", "use_bias": false, "bias_initializer": {"class_name": "Zeros", "config": {}, "shared_object_id": 234}, "bias_regularizer": null, "activity_regularizer": null, "bias_constraint": null, "depth_multiplier": 1, "depthwise_initializer": {"class_name": "GlorotUniform", "config": {"seed": null}, "shared_object_id": 235}, "depthwise_regularizer": null, "depthwise_constraint": null}, "name": "block_8_depthwise", "inbound_nodes": [[["block_8_expand_relu", 0, 0, {}]]], "shared_object_id": 236}, {"class_name": "BatchNormalization", "config": {"name": "block_8_depthwise_BN", "trainable": false, "dtype": "float32", "axis": [3], "momentum": 0.999, "epsilon": 0.001, "center": true, "scale": true, "beta_initializer": {"class_name": "Zeros", "config": {}, "shared_object_id": 237}, "gamma_initializer": {"class_name": "Ones", "config": {}, "shared_object_id": 238}, "moving_mean_initializer": {"class_name": "Zeros", "config": {}, "shared_object_id": 239}, "moving_variance_initializer": {"class_name": "Ones", "config": {}, "shared_object_id": 240}, "beta_regularizer": null, "gamma_regularizer": null, "beta_constraint": null, "gamma_constraint": null}, "name": "block_8_depthwise_BN", "inbound_nodes": [[["block_8_depthwise", 0, 0, {}]]], "shared_object_id": 241}, {"class_name": "ReLU", "config": {"name": "block_8_depthwise_relu", "trainable": false, "dtype": "float32", "max_value": 6.0, "negative_slope": 0.0, "threshold": 0.0}, "name": "block_8_depthwise_relu", "inbound_nodes": [[["block_8_depthwise_BN", 0, 0, {}]]], "shared_object_id": 242}, {"class_name": "Conv2D", "config": {"name": "block_8_project", "trainable": false, "dtype": "float32", "filters": 64, "kernel_size": [1, 1], "strides": [1, 1], "padding": "same", "data_format": "channels_last", "dilation_rate": [1, 1], "groups": 1, "activation": "linear", "use_bias": false, "kernel_initializer": {"class_name": "GlorotUniform", "config": {"seed": null}, "shared_object_id": 243}, "bias_initializer": {"class_name": "Zeros", "config": {}, "shared_object_id": 244}, "kernel_regularizer": null, "bias_regularizer": null, "activity_regularizer": null, "kernel_constraint": null, "bias_constraint": null}, "name": "block_8_project", "inbound_nodes": [[["block_8_depthwise_relu", 0, 0, {}]]], "shared_object_id": 245}, {"class_name": "BatchNormalization", "config": {"name": "block_8_project_BN", "trainable": false, "dtype": "float32", "axis": [3], "momentum": 0.999, "epsilon": 0.001, "center": true, "scale": true, "beta_initializer": {"class_name": "Zeros", "config": {}, "shared_object_id": 246}, "gamma_initializer": {"class_name": "Ones", "config": {}, "shared_object_id": 247}, "moving_mean_initializer": {"class_name": "Zeros", "config": {}, "shared_object_id": 248}, "moving_variance_initializer": {"class_name": "Ones", "config": {}, "shared_object_id": 249}, "beta_regularizer": null, "gamma_regularizer": null, "beta_constraint": null, "gamma_constraint": null}, "name": "block_8_project_BN", "inbound_nodes": [[["block_8_project", 0, 0, {}]]], "shared_object_id": 250}, {"class_name": "Add", "config": {"name": "block_8_add", "trainable": false, "dtype": "float32"}, "name": "block_8_add", "inbound_nodes": [[["block_7_add", 0, 0, {}], ["block_8_project_BN", 0, 0, {}]]], "shared_object_id": 251}, {"class_name": "Conv2D", "config": {"name": "block_9_expand", "trainable": false, "dtype": "float32", "filters": 384, "kernel_size": [1, 1], "strides": [1, 1], "padding": "same", "data_format": "channels_last", "dilation_rate": [1, 1], "groups": 1, "activation": "linear", "use_bias": false, "kernel_initializer": {"class_name": "GlorotUniform", "config": {"seed": null}, "shared_object_id": 252}, "bias_initializer": {"class_name": "Zeros", "config": {}, "shared_object_id": 253}, "kernel_regularizer": null, "bias_regularizer": null, "activity_regularizer": null, "kernel_constraint": null, "bias_constraint": null}, "name": "block_9_expand", "inbound_nodes": [[["block_8_add", 0, 0, {}]]], "shared_object_id": 254}, {"class_name": "BatchNormalization", "config": {"name": "block_9_expand_BN", "trainable": false, "dtype": "float32", "axis": [3], "momentum": 0.999, "epsilon": 0.001, "center": true, "scale": true, "beta_initializer": {"class_name": "Zeros", "config": {}, "shared_object_id": 255}, "gamma_initializer": {"class_name": "Ones", "config": {}, "shared_object_id": 256}, "moving_mean_initializer": {"class_name": "Zeros", "config": {}, "shared_object_id": 257}, "moving_variance_initializer": {"class_name": "Ones", "config": {}, "shared_object_id": 258}, "beta_regularizer": null, "gamma_regularizer": null, "beta_constraint": null, "gamma_constraint": null}, "name": "block_9_expand_BN", "inbound_nodes": [[["block_9_expand", 0, 0, {}]]], "shared_object_id": 259}, {"class_name": "ReLU", "config": {"name": "block_9_expand_relu", "trainable": false, "dtype": "float32", "max_value": 6.0, "negative_slope": 0.0, "threshold": 0.0}, "name": "block_9_expand_relu", "inbound_nodes": [[["block_9_expand_BN", 0, 0, {}]]], "shared_object_id": 260}, {"class_name": "DepthwiseConv2D", "config": {"name": "block_9_depthwise", "trainable": false, "dtype": "float32", "kernel_size": [3, 3], "strides": [1, 1], "padding": "same", "data_format": "channels_last", "dilation_rate": [1, 1], "groups": 1, "activation": "linear", "use_bias": false, "bias_initializer": {"class_name": "Zeros", "config": {}, "shared_object_id": 262}, "bias_regularizer": null, "activity_regularizer": null, "bias_constraint": null, "depth_multiplier": 1, "depthwise_initializer": {"class_name": "GlorotUniform", "config": {"seed": null}, "shared_object_id": 263}, "depthwise_regularizer": null, "depthwise_constraint": null}, "name": "block_9_depthwise", "inbound_nodes": [[["block_9_expand_relu", 0, 0, {}]]], "shared_object_id": 264}, {"class_name": "BatchNormalization", "config": {"name": "block_9_depthwise_BN", "trainable": false, "dtype": "float32", "axis": [3], "momentum": 0.999, "epsilon": 0.001, "center": true, "scale": true, "beta_initializer": {"class_name": "Zeros", "config": {}, "shared_object_id": 265}, "gamma_initializer": {"class_name": "Ones", "config": {}, "shared_object_id": 266}, "moving_mean_initializer": {"class_name": "Zeros", "config": {}, "shared_object_id": 267}, "moving_variance_initializer": {"class_name": "Ones", "config": {}, "shared_object_id": 268}, "beta_regularizer": null, "gamma_regularizer": null, "beta_constraint": null, "gamma_constraint": null}, "name": "block_9_depthwise_BN", "inbound_nodes": [[["block_9_depthwise", 0, 0, {}]]], "shared_object_id": 269}, {"class_name": "ReLU", "config": {"name": "block_9_depthwise_relu", "trainable": false, "dtype": "float32", "max_value": 6.0, "negative_slope": 0.0, "threshold": 0.0}, "name": "block_9_depthwise_relu", "inbound_nodes": [[["block_9_depthwise_BN", 0, 0, {}]]], "shared_object_id": 270}, {"class_name": "Conv2D", "config": {"name": "block_9_project", "trainable": false, "dtype": "float32", "filters": 64, "kernel_size": [1, 1], "strides": [1, 1], "padding": "same", "data_format": "channels_last", "dilation_rate": [1, 1], "groups": 1, "activation": "linear", "use_bias": false, "kernel_initializer": {"class_name": "GlorotUniform", "config": {"seed": null}, "shared_object_id": 271}, "bias_initializer": {"class_name": "Zeros", "config": {}, "shared_object_id": 272}, "kernel_regularizer": null, "bias_regularizer": null, "activity_regularizer": null, "kernel_constraint": null, "bias_constraint": null}, "name": "block_9_project", "inbound_nodes": [[["block_9_depthwise_relu", 0, 0, {}]]], "shared_object_id": 273}, {"class_name": "BatchNormalization", "config": {"name": "block_9_project_BN", "trainable": false, "dtype": "float32", "axis": [3], "momentum": 0.999, "epsilon": 0.001, "center": true, "scale": true, "beta_initializer": {"class_name": "Zeros", "config": {}, "shared_object_id": 274}, "gamma_initializer": {"class_name": "Ones", "config": {}, "shared_object_id": 275}, "moving_mean_initializer": {"class_name": "Zeros", "config": {}, "shared_object_id": 276}, "moving_variance_initializer": {"class_name": "Ones", "config": {}, "shared_object_id": 277}, "beta_regularizer": null, "gamma_regularizer": null, "beta_constraint": null, "gamma_constraint": null}, "name": "block_9_project_BN", "inbound_nodes": [[["block_9_project", 0, 0, {}]]], "shared_object_id": 278}, {"class_name": "Add", "config": {"name": "block_9_add", "trainable": false, "dtype": "float32"}, "name": "block_9_add", "inbound_nodes": [[["block_8_add", 0, 0, {}], ["block_9_project_BN", 0, 0, {}]]], "shared_object_id": 279}, {"class_name": "Conv2D", "config": {"name": "block_10_expand", "trainable": false, "dtype": "float32", "filters": 384, "kernel_size": [1, 1], "strides": [1, 1], "padding": "same", "data_format": "channels_last", "dilation_rate": [1, 1], "groups": 1, "activation": "linear", "use_bias": false, "kernel_initializer": {"class_name": "GlorotUniform", "config": {"seed": null}, "shared_object_id": 280}, "bias_initializer": {"class_name": "Zeros", "config": {}, "shared_object_id": 281}, "kernel_regularizer": null, "bias_regularizer": null, "activity_regularizer": null, "kernel_constraint": null, "bias_constraint": null}, "name": "block_10_expand", "inbound_nodes": [[["block_9_add", 0, 0, {}]]], "shared_object_id": 282}, {"class_name": "BatchNormalization", "config": {"name": "block_10_expand_BN", "trainable": false, "dtype": "float32", "axis": [3], "momentum": 0.999, "epsilon": 0.001, "center": true, "scale": true, "beta_initializer": {"class_name": "Zeros", "config": {}, "shared_object_id": 283}, "gamma_initializer": {"class_name": "Ones", "config": {}, "shared_object_id": 284}, "moving_mean_initializer": {"class_name": "Zeros", "config": {}, "shared_object_id": 285}, "moving_variance_initializer": {"class_name": "Ones", "config": {}, "shared_object_id": 286}, "beta_regularizer": null, "gamma_regularizer": null, "beta_constraint": null, "gamma_constraint": null}, "name": "block_10_expand_BN", "inbound_nodes": [[["block_10_expand", 0, 0, {}]]], "shared_object_id": 287}, {"class_name": "ReLU", "config": {"name": "block_10_expand_relu", "trainable": false, "dtype": "float32", "max_value": 6.0, "negative_slope": 0.0, "threshold": 0.0}, "name": "block_10_expand_relu", "inbound_nodes": [[["block_10_expand_BN", 0, 0, {}]]], "shared_object_id": 288}, {"class_name": "DepthwiseConv2D", "config": {"name": "block_10_depthwise", "trainable": false, "dtype": "float32", "kernel_size": [3, 3], "strides": [1, 1], "padding": "same", "data_format": "channels_last", "dilation_rate": [1, 1], "groups": 1, "activation": "linear", "use_bias": false, "bias_initializer": {"class_name": "Zeros", "config": {}, "shared_object_id": 290}, "bias_regularizer": null, "activity_regularizer": null, "bias_constraint": null, "depth_multiplier": 1, "depthwise_initializer": {"class_name": "GlorotUniform", "config": {"seed": null}, "shared_object_id": 291}, "depthwise_regularizer": null, "depthwise_constraint": null}, "name": "block_10_depthwise", "inbound_nodes": [[["block_10_expand_relu", 0, 0, {}]]], "shared_object_id": 292}, {"class_name": "BatchNormalization", "config": {"name": "block_10_depthwise_BN", "trainable": false, "dtype": "float32", "axis": [3], "momentum": 0.999, "epsilon": 0.001, "center": true, "scale": true, "beta_initializer": {"class_name": "Zeros", "config": {}, "shared_object_id": 293}, "gamma_initializer": {"class_name": "Ones", "config": {}, "shared_object_id": 294}, "moving_mean_initializer": {"class_name": "Zeros", "config": {}, "shared_object_id": 295}, "moving_variance_initializer": {"class_name": "Ones", "config": {}, "shared_object_id": 296}, "beta_regularizer": null, "gamma_regularizer": null, "beta_constraint": null, "gamma_constraint": null}, "name": "block_10_depthwise_BN", "inbound_nodes": [[["block_10_depthwise", 0, 0, {}]]], "shared_object_id": 297}, {"class_name": "ReLU", "config": {"name": "block_10_depthwise_relu", "trainable": false, "dtype": "float32", "max_value": 6.0, "negative_slope": 0.0, "threshold": 0.0}, "name": "block_10_depthwise_relu", "inbound_nodes": [[["block_10_depthwise_BN", 0, 0, {}]]], "shared_object_id": 298}, {"class_name": "Conv2D", "config": {"name": "block_10_project", "trainable": false, "dtype": "float32", "filters": 96, "kernel_size": [1, 1], "strides": [1, 1], "padding": "same", "data_format": "channels_last", "dilation_rate": [1, 1], "groups": 1, "activation": "linear", "use_bias": false, "kernel_initializer": {"class_name": "GlorotUniform", "config": {"seed": null}, "shared_object_id": 299}, "bias_initializer": {"class_name": "Zeros", "config": {}, "shared_object_id": 300}, "kernel_regularizer": null, "bias_regularizer": null, "activity_regularizer": null, "kernel_constraint": null, "bias_constraint": null}, "name": "block_10_project", "inbound_nodes": [[["block_10_depthwise_relu", 0, 0, {}]]], "shared_object_id": 301}, {"class_name": "BatchNormalization", "config": {"name": "block_10_project_BN", "trainable": false, "dtype": "float32", "axis": [3], "momentum": 0.999, "epsilon": 0.001, "center": true, "scale": true, "beta_initializer": {"class_name": "Zeros", "config": {}, "shared_object_id": 302}, "gamma_initializer": {"class_name": "Ones", "config": {}, "shared_object_id": 303}, "moving_mean_initializer": {"class_name": "Zeros", "config": {}, "shared_object_id": 304}, "moving_variance_initializer": {"class_name": "Ones", "config": {}, "shared_object_id": 305}, "beta_regularizer": null, "gamma_regularizer": null, "beta_constraint": null, "gamma_constraint": null}, "name": "block_10_project_BN", "inbound_nodes": [[["block_10_project", 0, 0, {}]]], "shared_object_id": 306}, {"class_name": "Conv2D", "config": {"name": "block_11_expand", "trainable": false, "dtype": "float32", "filters": 576, "kernel_size": [1, 1], "strides": [1, 1], "padding": "same", "data_format": "channels_last", "dilation_rate": [1, 1], "groups": 1, "activation": "linear", "use_bias": false, "kernel_initializer": {"class_name": "GlorotUniform", "config": {"seed": null}, "shared_object_id": 307}, "bias_initializer": {"class_name": "Zeros", "config": {}, "shared_object_id": 308}, "kernel_regularizer": null, "bias_regularizer": null, "activity_regularizer": null, "kernel_constraint": null, "bias_constraint": null}, "name": "block_11_expand", "inbound_nodes": [[["block_10_project_BN", 0, 0, {}]]], "shared_object_id": 309}, {"class_name": "BatchNormalization", "config": {"name": "block_11_expand_BN", "trainable": false, "dtype": "float32", "axis": [3], "momentum": 0.999, "epsilon": 0.001, "center": true, "scale": true, "beta_initializer": {"class_name": "Zeros", "config": {}, "shared_object_id": 310}, "gamma_initializer": {"class_name": "Ones", "config": {}, "shared_object_id": 311}, "moving_mean_initializer": {"class_name": "Zeros", "config": {}, "shared_object_id": 312}, "moving_variance_initializer": {"class_name": "Ones", "config": {}, "shared_object_id": 313}, "beta_regularizer": null, "gamma_regularizer": null, "beta_constraint": null, "gamma_constraint": null}, "name": "block_11_expand_BN", "inbound_nodes": [[["block_11_expand", 0, 0, {}]]], "shared_object_id": 314}, {"class_name": "ReLU", "config": {"name": "block_11_expand_relu", "trainable": false, "dtype": "float32", "max_value": 6.0, "negative_slope": 0.0, "threshold": 0.0}, "name": "block_11_expand_relu", "inbound_nodes": [[["block_11_expand_BN", 0, 0, {}]]], "shared_object_id": 315}, {"class_name": "DepthwiseConv2D", "config": {"name": "block_11_depthwise", "trainable": false, "dtype": "float32", "kernel_size": [3, 3], "strides": [1, 1], "padding": "same", "data_format": "channels_last", "dilation_rate": [1, 1], "groups": 1, "activation": "linear", "use_bias": false, "bias_initializer": {"class_name": "Zeros", "config": {}, "shared_object_id": 317}, "bias_regularizer": null, "activity_regularizer": null, "bias_constraint": null, "depth_multiplier": 1, "depthwise_initializer": {"class_name": "GlorotUniform", "config": {"seed": null}, "shared_object_id": 318}, "depthwise_regularizer": null, "depthwise_constraint": null}, "name": "block_11_depthwise", "inbound_nodes": [[["block_11_expand_relu", 0, 0, {}]]], "shared_object_id": 319}, {"class_name": "BatchNormalization", "config": {"name": "block_11_depthwise_BN", "trainable": false, "dtype": "float32", "axis": [3], "momentum": 0.999, "epsilon": 0.001, "center": true, "scale": true, "beta_initializer": {"class_name": "Zeros", "config": {}, "shared_object_id": 320}, "gamma_initializer": {"class_name": "Ones", "config": {}, "shared_object_id": 321}, "moving_mean_initializer": {"class_name": "Zeros", "config": {}, "shared_object_id": 322}, "moving_variance_initializer": {"class_name": "Ones", "config": {}, "shared_object_id": 323}, "beta_regularizer": null, "gamma_regularizer": null, "beta_constraint": null, "gamma_constraint": null}, "name": "block_11_depthwise_BN", "inbound_nodes": [[["block_11_depthwise", 0, 0, {}]]], "shared_object_id": 324}, {"class_name": "ReLU", "config": {"name": "block_11_depthwise_relu", "trainable": false, "dtype": "float32", "max_value": 6.0, "negative_slope": 0.0, "threshold": 0.0}, "name": "block_11_depthwise_relu", "inbound_nodes": [[["block_11_depthwise_BN", 0, 0, {}]]], "shared_object_id": 325}, {"class_name": "Conv2D", "config": {"name": "block_11_project", "trainable": false, "dtype": "float32", "filters": 96, "kernel_size": [1, 1], "strides": [1, 1], "padding": "same", "data_format": "channels_last", "dilation_rate": [1, 1], "groups": 1, "activation": "linear", "use_bias": false, "kernel_initializer": {"class_name": "GlorotUniform", "config": {"seed": null}, "shared_object_id": 326}, "bias_initializer": {"class_name": "Zeros", "config": {}, "shared_object_id": 327}, "kernel_regularizer": null, "bias_regularizer": null, "activity_regularizer": null, "kernel_constraint": null, "bias_constraint": null}, "name": "block_11_project", "inbound_nodes": [[["block_11_depthwise_relu", 0, 0, {}]]], "shared_object_id": 328}, {"class_name": "BatchNormalization", "config": {"name": "block_11_project_BN", "trainable": false, "dtype": "float32", "axis": [3], "momentum": 0.999, "epsilon": 0.001, "center": true, "scale": true, "beta_initializer": {"class_name": "Zeros", "config": {}, "shared_object_id": 329}, "gamma_initializer": {"class_name": "Ones", "config": {}, "shared_object_id": 330}, "moving_mean_initializer": {"class_name": "Zeros", "config": {}, "shared_object_id": 331}, "moving_variance_initializer": {"class_name": "Ones", "config": {}, "shared_object_id": 332}, "beta_regularizer": null, "gamma_regularizer": null, "beta_constraint": null, "gamma_constraint": null}, "name": "block_11_project_BN", "inbound_nodes": [[["block_11_project", 0, 0, {}]]], "shared_object_id": 333}, {"class_name": "Add", "config": {"name": "block_11_add", "trainable": false, "dtype": "float32"}, "name": "block_11_add", "inbound_nodes": [[["block_10_project_BN", 0, 0, {}], ["block_11_project_BN", 0, 0, {}]]], "shared_object_id": 334}, {"class_name": "Conv2D", "config": {"name": "block_12_expand", "trainable": false, "dtype": "float32", "filters": 576, "kernel_size": [1, 1], "strides": [1, 1], "padding": "same", "data_format": "channels_last", "dilation_rate": [1, 1], "groups": 1, "activation": "linear", "use_bias": false, "kernel_initializer": {"class_name": "GlorotUniform", "config": {"seed": null}, "shared_object_id": 335}, "bias_initializer": {"class_name": "Zeros", "config": {}, "shared_object_id": 336}, "kernel_regularizer": null, "bias_regularizer": null, "activity_regularizer": null, "kernel_constraint": null, "bias_constraint": null}, "name": "block_12_expand", "inbound_nodes": [[["block_11_add", 0, 0, {}]]], "shared_object_id": 337}, {"class_name": "BatchNormalization", "config": {"name": "block_12_expand_BN", "trainable": false, "dtype": "float32", "axis": [3], "momentum": 0.999, "epsilon": 0.001, "center": true, "scale": true, "beta_initializer": {"class_name": "Zeros", "config": {}, "shared_object_id": 338}, "gamma_initializer": {"class_name": "Ones", "config": {}, "shared_object_id": 339}, "moving_mean_initializer": {"class_name": "Zeros", "config": {}, "shared_object_id": 340}, "moving_variance_initializer": {"class_name": "Ones", "config": {}, "shared_object_id": 341}, "beta_regularizer": null, "gamma_regularizer": null, "beta_constraint": null, "gamma_constraint": null}, "name": "block_12_expand_BN", "inbound_nodes": [[["block_12_expand", 0, 0, {}]]], "shared_object_id": 342}, {"class_name": "ReLU", "config": {"name": "block_12_expand_relu", "trainable": false, "dtype": "float32", "max_value": 6.0, "negative_slope": 0.0, "threshold": 0.0}, "name": "block_12_expand_relu", "inbound_nodes": [[["block_12_expand_BN", 0, 0, {}]]], "shared_object_id": 343}, {"class_name": "DepthwiseConv2D", "config": {"name": "block_12_depthwise", "trainable": false, "dtype": "float32", "kernel_size": [3, 3], "strides": [1, 1], "padding": "same", "data_format": "channels_last", "dilation_rate": [1, 1], "groups": 1, "activation": "linear", "use_bias": false, "bias_initializer": {"class_name": "Zeros", "config": {}, "shared_object_id": 345}, "bias_regularizer": null, "activity_regularizer": null, "bias_constraint": null, "depth_multiplier": 1, "depthwise_initializer": {"class_name": "GlorotUniform", "config": {"seed": null}, "shared_object_id": 346}, "depthwise_regularizer": null, "depthwise_constraint": null}, "name": "block_12_depthwise", "inbound_nodes": [[["block_12_expand_relu", 0, 0, {}]]], "shared_object_id": 347}, {"class_name": "BatchNormalization", "config": {"name": "block_12_depthwise_BN", "trainable": false, "dtype": "float32", "axis": [3], "momentum": 0.999, "epsilon": 0.001, "center": true, "scale": true, "beta_initializer": {"class_name": "Zeros", "config": {}, "shared_object_id": 348}, "gamma_initializer": {"class_name": "Ones", "config": {}, "shared_object_id": 349}, "moving_mean_initializer": {"class_name": "Zeros", "config": {}, "shared_object_id": 350}, "moving_variance_initializer": {"class_name": "Ones", "config": {}, "shared_object_id": 351}, "beta_regularizer": null, "gamma_regularizer": null, "beta_constraint": null, "gamma_constraint": null}, "name": "block_12_depthwise_BN", "inbound_nodes": [[["block_12_depthwise", 0, 0, {}]]], "shared_object_id": 352}, {"class_name": "ReLU", "config": {"name": "block_12_depthwise_relu", "trainable": false, "dtype": "float32", "max_value": 6.0, "negative_slope": 0.0, "threshold": 0.0}, "name": "block_12_depthwise_relu", "inbound_nodes": [[["block_12_depthwise_BN", 0, 0, {}]]], "shared_object_id": 353}, {"class_name": "Conv2D", "config": {"name": "block_12_project", "trainable": false, "dtype": "float32", "filters": 96, "kernel_size": [1, 1], "strides": [1, 1], "padding": "same", "data_format": "channels_last", "dilation_rate": [1, 1], "groups": 1, "activation": "linear", "use_bias": false, "kernel_initializer": {"class_name": "GlorotUniform", "config": {"seed": null}, "shared_object_id": 354}, "bias_initializer": {"class_name": "Zeros", "config": {}, "shared_object_id": 355}, "kernel_regularizer": null, "bias_regularizer": null, "activity_regularizer": null, "kernel_constraint": null, "bias_constraint": null}, "name": "block_12_project", "inbound_nodes": [[["block_12_depthwise_relu", 0, 0, {}]]], "shared_object_id": 356}, {"class_name": "BatchNormalization", "config": {"name": "block_12_project_BN", "trainable": false, "dtype": "float32", "axis": [3], "momentum": 0.999, "epsilon": 0.001, "center": true, "scale": true, "beta_initializer": {"class_name": "Zeros", "config": {}, "shared_object_id": 357}, "gamma_initializer": {"class_name": "Ones", "config": {}, "shared_object_id": 358}, "moving_mean_initializer": {"class_name": "Zeros", "config": {}, "shared_object_id": 359}, "moving_variance_initializer": {"class_name": "Ones", "config": {}, "shared_object_id": 360}, "beta_regularizer": null, "gamma_regularizer": null, "beta_constraint": null, "gamma_constraint": null}, "name": "block_12_project_BN", "inbound_nodes": [[["block_12_project", 0, 0, {}]]], "shared_object_id": 361}, {"class_name": "Add", "config": {"name": "block_12_add", "trainable": false, "dtype": "float32"}, "name": "block_12_add", "inbound_nodes": [[["block_11_add", 0, 0, {}], ["block_12_project_BN", 0, 0, {}]]], "shared_object_id": 362}, {"class_name": "Conv2D", "config": {"name": "block_13_expand", "trainable": false, "dtype": "float32", "filters": 576, "kernel_size": [1, 1], "strides": [1, 1], "padding": "same", "data_format": "channels_last", "dilation_rate": [1, 1], "groups": 1, "activation": "linear", "use_bias": false, "kernel_initializer": {"class_name": "GlorotUniform", "config": {"seed": null}, "shared_object_id": 363}, "bias_initializer": {"class_name": "Zeros", "config": {}, "shared_object_id": 364}, "kernel_regularizer": null, "bias_regularizer": null, "activity_regularizer": null, "kernel_constraint": null, "bias_constraint": null}, "name": "block_13_expand", "inbound_nodes": [[["block_12_add", 0, 0, {}]]], "shared_object_id": 365}, {"class_name": "BatchNormalization", "config": {"name": "block_13_expand_BN", "trainable": false, "dtype": "float32", "axis": [3], "momentum": 0.999, "epsilon": 0.001, "center": true, "scale": true, "beta_initializer": {"class_name": "Zeros", "config": {}, "shared_object_id": 366}, "gamma_initializer": {"class_name": "Ones", "config": {}, "shared_object_id": 367}, "moving_mean_initializer": {"class_name": "Zeros", "config": {}, "shared_object_id": 368}, "moving_variance_initializer": {"class_name": "Ones", "config": {}, "shared_object_id": 369}, "beta_regularizer": null, "gamma_regularizer": null, "beta_constraint": null, "gamma_constraint": null}, "name": "block_13_expand_BN", "inbound_nodes": [[["block_13_expand", 0, 0, {}]]], "shared_object_id": 370}, {"class_name": "ReLU", "config": {"name": "block_13_expand_relu", "trainable": false, "dtype": "float32", "max_value": 6.0, "negative_slope": 0.0, "threshold": 0.0}, "name": "block_13_expand_relu", "inbound_nodes": [[["block_13_expand_BN", 0, 0, {}]]], "shared_object_id": 371}, {"class_name": "ZeroPadding2D", "config": {"name": "block_13_pad", "trainable": false, "dtype": "float32", "padding": [[0, 1], [0, 1]], "data_format": "channels_last"}, "name": "block_13_pad", "inbound_nodes": [[["block_13_expand_relu", 0, 0, {}]]], "shared_object_id": 372}, {"class_name": "DepthwiseConv2D", "config": {"name": "block_13_depthwise", "trainable": false, "dtype": "float32", "kernel_size": [3, 3], "strides": [2, 2], "padding": "valid", "data_format": "channels_last", "dilation_rate": [1, 1], "groups": 1, "activation": "linear", "use_bias": false, "bias_initializer": {"class_name": "Zeros", "config": {}, "shared_object_id": 374}, "bias_regularizer": null, "activity_regularizer": null, "bias_constraint": null, "depth_multiplier": 1, "depthwise_initializer": {"class_name": "GlorotUniform", "config": {"seed": null}, "shared_object_id": 375}, "depthwise_regularizer": null, "depthwise_constraint": null}, "name": "block_13_depthwise", "inbound_nodes": [[["block_13_pad", 0, 0, {}]]], "shared_object_id": 376}, {"class_name": "BatchNormalization", "config": {"name": "block_13_depthwise_BN", "trainable": false, "dtype": "float32", "axis": [3], "momentum": 0.999, "epsilon": 0.001, "center": true, "scale": true, "beta_initializer": {"class_name": "Zeros", "config": {}, "shared_object_id": 377}, "gamma_initializer": {"class_name": "Ones", "config": {}, "shared_object_id": 378}, "moving_mean_initializer": {"class_name": "Zeros", "config": {}, "shared_object_id": 379}, "moving_variance_initializer": {"class_name": "Ones", "config": {}, "shared_object_id": 380}, "beta_regularizer": null, "gamma_regularizer": null, "beta_constraint": null, "gamma_constraint": null}, "name": "block_13_depthwise_BN", "inbound_nodes": [[["block_13_depthwise", 0, 0, {}]]], "shared_object_id": 381}, {"class_name": "ReLU", "config": {"name": "block_13_depthwise_relu", "trainable": false, "dtype": "float32", "max_value": 6.0, "negative_slope": 0.0, "threshold": 0.0}, "name": "block_13_depthwise_relu", "inbound_nodes": [[["block_13_depthwise_BN", 0, 0, {}]]], "shared_object_id": 382}, {"class_name": "Conv2D", "config": {"name": "block_13_project", "trainable": false, "dtype": "float32", "filters": 160, "kernel_size": [1, 1], "strides": [1, 1], "padding": "same", "data_format": "channels_last", "dilation_rate": [1, 1], "groups": 1, "activation": "linear", "use_bias": false, "kernel_initializer": {"class_name": "GlorotUniform", "config": {"seed": null}, "shared_object_id": 383}, "bias_initializer": {"class_name": "Zeros", "config": {}, "shared_object_id": 384}, "kernel_regularizer": null, "bias_regularizer": null, "activity_regularizer": null, "kernel_constraint": null, "bias_constraint": null}, "name": "block_13_project", "inbound_nodes": [[["block_13_depthwise_relu", 0, 0, {}]]], "shared_object_id": 385}, {"class_name": "BatchNormalization", "config": {"name": "block_13_project_BN", "trainable": true, "dtype": "float32", "axis": [3], "momentum": 0.999, "epsilon": 0.001, "center": true, "scale": true, "beta_initializer": {"class_name": "Zeros", "config": {}, "shared_object_id": 386}, "gamma_initializer": {"class_name": "Ones", "config": {}, "shared_object_id": 387}, "moving_mean_initializer": {"class_name": "Zeros", "config": {}, "shared_object_id": 388}, "moving_variance_initializer": {"class_name": "Ones", "config": {}, "shared_object_id": 389}, "beta_regularizer": null, "gamma_regularizer": null, "beta_constraint": null, "gamma_constraint": null}, "name": "block_13_project_BN", "inbound_nodes": [[["block_13_project", 0, 0, {}]]], "shared_object_id": 390}, {"class_name": "Conv2D", "config": {"name": "block_14_expand", "trainable": true, "dtype": "float32", "filters": 960, "kernel_size": [1, 1], "strides": [1, 1], "padding": "same", "data_format": "channels_last", "dilation_rate": [1, 1], "groups": 1, "activation": "linear", "use_bias": false, "kernel_initializer": {"class_name": "GlorotUniform", "config": {"seed": null}, "shared_object_id": 391}, "bias_initializer": {"class_name": "Zeros", "config": {}, "shared_object_id": 392}, "kernel_regularizer": null, "bias_regularizer": null, "activity_regularizer": null, "kernel_constraint": null, "bias_constraint": null}, "name": "block_14_expand", "inbound_nodes": [[["block_13_project_BN", 0, 0, {}]]], "shared_object_id": 393}, {"class_name": "BatchNormalization", "config": {"name": "block_14_expand_BN", "trainable": true, "dtype": "float32", "axis": [3], "momentum": 0.999, "epsilon": 0.001, "center": true, "scale": true, "beta_initializer": {"class_name": "Zeros", "config": {}, "shared_object_id": 394}, "gamma_initializer": {"class_name": "Ones", "config": {}, "shared_object_id": 395}, "moving_mean_initializer": {"class_name": "Zeros", "config": {}, "shared_object_id": 396}, "moving_variance_initializer": {"class_name": "Ones", "config": {}, "shared_object_id": 397}, "beta_regularizer": null, "gamma_regularizer": null, "beta_constraint": null, "gamma_constraint": null}, "name": "block_14_expand_BN", "inbound_nodes": [[["block_14_expand", 0, 0, {}]]], "shared_object_id": 398}, {"class_name": "ReLU", "config": {"name": "block_14_expand_relu", "trainable": true, "dtype": "float32", "max_value": 6.0, "negative_slope": 0.0, "threshold": 0.0}, "name": "block_14_expand_relu", "inbound_nodes": [[["block_14_expand_BN", 0, 0, {}]]], "shared_object_id": 399}, {"class_name": "DepthwiseConv2D", "config": {"name": "block_14_depthwise", "trainable": true, "dtype": "float32", "kernel_size": [3, 3], "strides": [1, 1], "padding": "same", "data_format": "channels_last", "dilation_rate": [1, 1], "groups": 1, "activation": "linear", "use_bias": false, "bias_initializer": {"class_name": "Zeros", "config": {}, "shared_object_id": 401}, "bias_regularizer": null, "activity_regularizer": null, "bias_constraint": null, "depth_multiplier": 1, "depthwise_initializer": {"class_name": "GlorotUniform", "config": {"seed": null}, "shared_object_id": 402}, "depthwise_regularizer": null, "depthwise_constraint": null}, "name": "block_14_depthwise", "inbound_nodes": [[["block_14_expand_relu", 0, 0, {}]]], "shared_object_id": 403}, {"class_name": "BatchNormalization", "config": {"name": "block_14_depthwise_BN", "trainable": true, "dtype": "float32", "axis": [3], "momentum": 0.999, "epsilon": 0.001, "center": true, "scale": true, "beta_initializer": {"class_name": "Zeros", "config": {}, "shared_object_id": 404}, "gamma_initializer": {"class_name": "Ones", "config": {}, "shared_object_id": 405}, "moving_mean_initializer": {"class_name": "Zeros", "config": {}, "shared_object_id": 406}, "moving_variance_initializer": {"class_name": "Ones", "config": {}, "shared_object_id": 407}, "beta_regularizer": null, "gamma_regularizer": null, "beta_constraint": null, "gamma_constraint": null}, "name": "block_14_depthwise_BN", "inbound_nodes": [[["block_14_depthwise", 0, 0, {}]]], "shared_object_id": 408}, {"class_name": "ReLU", "config": {"name": "block_14_depthwise_relu", "trainable": true, "dtype": "float32", "max_value": 6.0, "negative_slope": 0.0, "threshold": 0.0}, "name": "block_14_depthwise_relu", "inbound_nodes": [[["block_14_depthwise_BN", 0, 0, {}]]], "shared_object_id": 409}, {"class_name": "Conv2D", "config": {"name": "block_14_project", "trainable": true, "dtype": "float32", "filters": 160, "kernel_size": [1, 1], "strides": [1, 1], "padding": "same", "data_format": "channels_last", "dilation_rate": [1, 1], "groups": 1, "activation": "linear", "use_bias": false, "kernel_initializer": {"class_name": "GlorotUniform", "config": {"seed": null}, "shared_object_id": 410}, "bias_initializer": {"class_name": "Zeros", "config": {}, "shared_object_id": 411}, "kernel_regularizer": null, "bias_regularizer": null, "activity_regularizer": null, "kernel_constraint": null, "bias_constraint": null}, "name": "block_14_project", "inbound_nodes": [[["block_14_depthwise_relu", 0, 0, {}]]], "shared_object_id": 412}, {"class_name": "BatchNormalization", "config": {"name": "block_14_project_BN", "trainable": true, "dtype": "float32", "axis": [3], "momentum": 0.999, "epsilon": 0.001, "center": true, "scale": true, "beta_initializer": {"class_name": "Zeros", "config": {}, "shared_object_id": 413}, "gamma_initializer": {"class_name": "Ones", "config": {}, "shared_object_id": 414}, "moving_mean_initializer": {"class_name": "Zeros", "config": {}, "shared_object_id": 415}, "moving_variance_initializer": {"class_name": "Ones", "config": {}, "shared_object_id": 416}, "beta_regularizer": null, "gamma_regularizer": null, "beta_constraint": null, "gamma_constraint": null}, "name": "block_14_project_BN", "inbound_nodes": [[["block_14_project", 0, 0, {}]]], "shared_object_id": 417}, {"class_name": "Add", "config": {"name": "block_14_add", "trainable": true, "dtype": "float32"}, "name": "block_14_add", "inbound_nodes": [[["block_13_project_BN", 0, 0, {}], ["block_14_project_BN", 0, 0, {}]]], "shared_object_id": 418}, {"class_name": "Conv2D", "config": {"name": "block_15_expand", "trainable": true, "dtype": "float32", "filters": 960, "kernel_size": [1, 1], "strides": [1, 1], "padding": "same", "data_format": "channels_last", "dilation_rate": [1, 1], "groups": 1, "activation": "linear", "use_bias": false, "kernel_initializer": {"class_name": "GlorotUniform", "config": {"seed": null}, "shared_object_id": 419}, "bias_initializer": {"class_name": "Zeros", "config": {}, "shared_object_id": 420}, "kernel_regularizer": null, "bias_regularizer": null, "activity_regularizer": null, "kernel_constraint": null, "bias_constraint": null}, "name": "block_15_expand", "inbound_nodes": [[["block_14_add", 0, 0, {}]]], "shared_object_id": 421}, {"class_name": "BatchNormalization", "config": {"name": "block_15_expand_BN", "trainable": true, "dtype": "float32", "axis": [3], "momentum": 0.999, "epsilon": 0.001, "center": true, "scale": true, "beta_initializer": {"class_name": "Zeros", "config": {}, "shared_object_id": 422}, "gamma_initializer": {"class_name": "Ones", "config": {}, "shared_object_id": 423}, "moving_mean_initializer": {"class_name": "Zeros", "config": {}, "shared_object_id": 424}, "moving_variance_initializer": {"class_name": "Ones", "config": {}, "shared_object_id": 425}, "beta_regularizer": null, "gamma_regularizer": null, "beta_constraint": null, "gamma_constraint": null}, "name": "block_15_expand_BN", "inbound_nodes": [[["block_15_expand", 0, 0, {}]]], "shared_object_id": 426}, {"class_name": "ReLU", "config": {"name": "block_15_expand_relu", "trainable": true, "dtype": "float32", "max_value": 6.0, "negative_slope": 0.0, "threshold": 0.0}, "name": "block_15_expand_relu", "inbound_nodes": [[["block_15_expand_BN", 0, 0, {}]]], "shared_object_id": 427}, {"class_name": "DepthwiseConv2D", "config": {"name": "block_15_depthwise", "trainable": true, "dtype": "float32", "kernel_size": [3, 3], "strides": [1, 1], "padding": "same", "data_format": "channels_last", "dilation_rate": [1, 1], "groups": 1, "activation": "linear", "use_bias": false, "bias_initializer": {"class_name": "Zeros", "config": {}, "shared_object_id": 429}, "bias_regularizer": null, "activity_regularizer": null, "bias_constraint": null, "depth_multiplier": 1, "depthwise_initializer": {"class_name": "GlorotUniform", "config": {"seed": null}, "shared_object_id": 430}, "depthwise_regularizer": null, "depthwise_constraint": null}, "name": "block_15_depthwise", "inbound_nodes": [[["block_15_expand_relu", 0, 0, {}]]], "shared_object_id": 431}, {"class_name": "BatchNormalization", "config": {"name": "block_15_depthwise_BN", "trainable": true, "dtype": "float32", "axis": [3], "momentum": 0.999, "epsilon": 0.001, "center": true, "scale": true, "beta_initializer": {"class_name": "Zeros", "config": {}, "shared_object_id": 432}, "gamma_initializer": {"class_name": "Ones", "config": {}, "shared_object_id": 433}, "moving_mean_initializer": {"class_name": "Zeros", "config": {}, "shared_object_id": 434}, "moving_variance_initializer": {"class_name": "Ones", "config": {}, "shared_object_id": 435}, "beta_regularizer": null, "gamma_regularizer": null, "beta_constraint": null, "gamma_constraint": null}, "name": "block_15_depthwise_BN", "inbound_nodes": [[["block_15_depthwise", 0, 0, {}]]], "shared_object_id": 436}, {"class_name": "ReLU", "config": {"name": "block_15_depthwise_relu", "trainable": true, "dtype": "float32", "max_value": 6.0, "negative_slope": 0.0, "threshold": 0.0}, "name": "block_15_depthwise_relu", "inbound_nodes": [[["block_15_depthwise_BN", 0, 0, {}]]], "shared_object_id": 437}, {"class_name": "Conv2D", "config": {"name": "block_15_project", "trainable": true, "dtype": "float32", "filters": 160, "kernel_size": [1, 1], "strides": [1, 1], "padding": "same", "data_format": "channels_last", "dilation_rate": [1, 1], "groups": 1, "activation": "linear", "use_bias": false, "kernel_initializer": {"class_name": "GlorotUniform", "config": {"seed": null}, "shared_object_id": 438}, "bias_initializer": {"class_name": "Zeros", "config": {}, "shared_object_id": 439}, "kernel_regularizer": null, "bias_regularizer": null, "activity_regularizer": null, "kernel_constraint": null, "bias_constraint": null}, "name": "block_15_project", "inbound_nodes": [[["block_15_depthwise_relu", 0, 0, {}]]], "shared_object_id": 440}, {"class_name": "BatchNormalization", "config": {"name": "block_15_project_BN", "trainable": true, "dtype": "float32", "axis": [3], "momentum": 0.999, "epsilon": 0.001, "center": true, "scale": true, "beta_initializer": {"class_name": "Zeros", "config": {}, "shared_object_id": 441}, "gamma_initializer": {"class_name": "Ones", "config": {}, "shared_object_id": 442}, "moving_mean_initializer": {"class_name": "Zeros", "config": {}, "shared_object_id": 443}, "moving_variance_initializer": {"class_name": "Ones", "config": {}, "shared_object_id": 444}, "beta_regularizer": null, "gamma_regularizer": null, "beta_constraint": null, "gamma_constraint": null}, "name": "block_15_project_BN", "inbound_nodes": [[["block_15_project", 0, 0, {}]]], "shared_object_id": 445}, {"class_name": "Add", "config": {"name": "block_15_add", "trainable": true, "dtype": "float32"}, "name": "block_15_add", "inbound_nodes": [[["block_14_add", 0, 0, {}], ["block_15_project_BN", 0, 0, {}]]], "shared_object_id": 446}, {"class_name": "Conv2D", "config": {"name": "block_16_expand", "trainable": true, "dtype": "float32", "filters": 960, "kernel_size": [1, 1], "strides": [1, 1], "padding": "same", "data_format": "channels_last", "dilation_rate": [1, 1], "groups": 1, "activation": "linear", "use_bias": false, "kernel_initializer": {"class_name": "GlorotUniform", "config": {"seed": null}, "shared_object_id": 447}, "bias_initializer": {"class_name": "Zeros", "config": {}, "shared_object_id": 448}, "kernel_regularizer": null, "bias_regularizer": null, "activity_regularizer": null, "kernel_constraint": null, "bias_constraint": null}, "name": "block_16_expand", "inbound_nodes": [[["block_15_add", 0, 0, {}]]], "shared_object_id": 449}, {"class_name": "BatchNormalization", "config": {"name": "block_16_expand_BN", "trainable": true, "dtype": "float32", "axis": [3], "momentum": 0.999, "epsilon": 0.001, "center": true, "scale": true, "beta_initializer": {"class_name": "Zeros", "config": {}, "shared_object_id": 450}, "gamma_initializer": {"class_name": "Ones", "config": {}, "shared_object_id": 451}, "moving_mean_initializer": {"class_name": "Zeros", "config": {}, "shared_object_id": 452}, "moving_variance_initializer": {"class_name": "Ones", "config": {}, "shared_object_id": 453}, "beta_regularizer": null, "gamma_regularizer": null, "beta_constraint": null, "gamma_constraint": null}, "name": "block_16_expand_BN", "inbound_nodes": [[["block_16_expand", 0, 0, {}]]], "shared_object_id": 454}, {"class_name": "ReLU", "config": {"name": "block_16_expand_relu", "trainable": true, "dtype": "float32", "max_value": 6.0, "negative_slope": 0.0, "threshold": 0.0}, "name": "block_16_expand_relu", "inbound_nodes": [[["block_16_expand_BN", 0, 0, {}]]], "shared_object_id": 455}, {"class_name": "DepthwiseConv2D", "config": {"name": "block_16_depthwise", "trainable": true, "dtype": "float32", "kernel_size": [3, 3], "strides": [1, 1], "padding": "same", "data_format": "channels_last", "dilation_rate": [1, 1], "groups": 1, "activation": "linear", "use_bias": false, "bias_initializer": {"class_name": "Zeros", "config": {}, "shared_object_id": 457}, "bias_regularizer": null, "activity_regularizer": null, "bias_constraint": null, "depth_multiplier": 1, "depthwise_initializer": {"class_name": "GlorotUniform", "config": {"seed": null}, "shared_object_id": 458}, "depthwise_regularizer": null, "depthwise_constraint": null}, "name": "block_16_depthwise", "inbound_nodes": [[["block_16_expand_relu", 0, 0, {}]]], "shared_object_id": 459}, {"class_name": "BatchNormalization", "config": {"name": "block_16_depthwise_BN", "trainable": true, "dtype": "float32", "axis": [3], "momentum": 0.999, "epsilon": 0.001, "center": true, "scale": true, "beta_initializer": {"class_name": "Zeros", "config": {}, "shared_object_id": 460}, "gamma_initializer": {"class_name": "Ones", "config": {}, "shared_object_id": 461}, "moving_mean_initializer": {"class_name": "Zeros", "config": {}, "shared_object_id": 462}, "moving_variance_initializer": {"class_name": "Ones", "config": {}, "shared_object_id": 463}, "beta_regularizer": null, "gamma_regularizer": null, "beta_constraint": null, "gamma_constraint": null}, "name": "block_16_depthwise_BN", "inbound_nodes": [[["block_16_depthwise", 0, 0, {}]]], "shared_object_id": 464}, {"class_name": "ReLU", "config": {"name": "block_16_depthwise_relu", "trainable": true, "dtype": "float32", "max_value": 6.0, "negative_slope": 0.0, "threshold": 0.0}, "name": "block_16_depthwise_relu", "inbound_nodes": [[["block_16_depthwise_BN", 0, 0, {}]]], "shared_object_id": 465}, {"class_name": "Conv2D", "config": {"name": "block_16_project", "trainable": true, "dtype": "float32", "filters": 320, "kernel_size": [1, 1], "strides": [1, 1], "padding": "same", "data_format": "channels_last", "dilation_rate": [1, 1], "groups": 1, "activation": "linear", "use_bias": false, "kernel_initializer": {"class_name": "GlorotUniform", "config": {"seed": null}, "shared_object_id": 466}, "bias_initializer": {"class_name": "Zeros", "config": {}, "shared_object_id": 467}, "kernel_regularizer": null, "bias_regularizer": null, "activity_regularizer": null, "kernel_constraint": null, "bias_constraint": null}, "name": "block_16_project", "inbound_nodes": [[["block_16_depthwise_relu", 0, 0, {}]]], "shared_object_id": 468}, {"class_name": "BatchNormalization", "config": {"name": "block_16_project_BN", "trainable": true, "dtype": "float32", "axis": [3], "momentum": 0.999, "epsilon": 0.001, "center": true, "scale": true, "beta_initializer": {"class_name": "Zeros", "config": {}, "shared_object_id": 469}, "gamma_initializer": {"class_name": "Ones", "config": {}, "shared_object_id": 470}, "moving_mean_initializer": {"class_name": "Zeros", "config": {}, "shared_object_id": 471}, "moving_variance_initializer": {"class_name": "Ones", "config": {}, "shared_object_id": 472}, "beta_regularizer": null, "gamma_regularizer": null, "beta_constraint": null, "gamma_constraint": null}, "name": "block_16_project_BN", "inbound_nodes": [[["block_16_project", 0, 0, {}]]], "shared_object_id": 473}, {"class_name": "Conv2D", "config": {"name": "Conv_1", "trainable": true, "dtype": "float32", "filters": 1280, "kernel_size": [1, 1], "strides": [1, 1], "padding": "valid", "data_format": "channels_last", "dilation_rate": [1, 1], "groups": 1, "activation": "linear", "use_bias": false, "kernel_initializer": {"class_name": "GlorotUniform", "config": {"seed": null}, "shared_object_id": 474}, "bias_initializer": {"class_name": "Zeros", "config": {}, "shared_object_id": 475}, "kernel_regularizer": null, "bias_regularizer": null, "activity_regularizer": null, "kernel_constraint": null, "bias_constraint": null}, "name": "Conv_1", "inbound_nodes": [[["block_16_project_BN", 0, 0, {}]]], "shared_object_id": 476}, {"class_name": "BatchNormalization", "config": {"name": "Conv_1_bn", "trainable": true, "dtype": "float32", "axis": [3], "momentum": 0.999, "epsilon": 0.001, "center": true, "scale": true, "beta_initializer": {"class_name": "Zeros", "config": {}, "shared_object_id": 477}, "gamma_initializer": {"class_name": "Ones", "config": {}, "shared_object_id": 478}, "moving_mean_initializer": {"class_name": "Zeros", "config": {}, "shared_object_id": 479}, "moving_variance_initializer": {"class_name": "Ones", "config": {}, "shared_object_id": 480}, "beta_regularizer": null, "gamma_regularizer": null, "beta_constraint": null, "gamma_constraint": null}, "name": "Conv_1_bn", "inbound_nodes": [[["Conv_1", 0, 0, {}]]], "shared_object_id": 481}, {"class_name": "ReLU", "config": {"name": "out_relu", "trainable": true, "dtype": "float32", "max_value": 6.0, "negative_slope": 0.0, "threshold": 0.0}, "name": "out_relu", "inbound_nodes": [[["Conv_1_bn", 0, 0, {}]]], "shared_object_id": 482}, {"class_name": "GlobalAveragePooling2D", "config": {"name": "global_average_pooling2d", "trainable": true, "dtype": "float32", "data_format": "channels_last", "keepdims": false}, "name": "global_average_pooling2d", "inbound_nodes": [[["out_relu", 0, 0, {}]]]}, {"class_name": "Dense", "config": {"name": "dense", "trainable": true, "dtype": "float32", "units": 512, "activation": "relu", "use_bias": true, "kernel_initializer": {"class_name": "GlorotUniform", "config": {"seed": null}}, "bias_initializer": {"class_name": "Zeros", "config": {}}, "kernel_regularizer": null, "bias_regularizer": null, "activity_regularizer": null, "kernel_constraint": null, "bias_constraint": null}, "name": "dense", "inbound_nodes": [[["global_average_pooling2d", 0, 0, {}]]]}, {"class_name": "Dropout", "config": {"name": "dropout", "trainable": true, "dtype": "float32", "rate": 0.5, "noise_shape": null, "seed": null}, "name": "dropout", "inbound_nodes": [[["dense", 0, 0, {}]]]}, {"class_name": "Dense", "config": {"name": "dense_1", "trainable": true, "dtype": "float32", "units": 256, "activation": "relu", "use_bias": true, "kernel_initializer": {"class_name": "GlorotUniform", "config": {"seed": null}}, "bias_initializer": {"class_name": "Zeros", "config": {}}, "kernel_regularizer": null, "bias_regularizer": null, "activity_regularizer": null, "kernel_constraint": null, "bias_constraint": null}, "name": "dense_1", "inbound_nodes": [[["dropout", 0, 0, {}]]]}, {"class_name": "Dropout", "config": {"name": "dropout_1", "trainable": true, "dtype": "float32", "rate": 0.3, "noise_shape": null, "seed": null}, "name": "dropout_1", "inbound_nodes": [[["dense_1", 0, 0, {}]]]}, {"class_name": "Dense", "config": {"name": "dense_2", "trainable": true, "dtype": "float32", "units": 6, "activation": "softmax", "use_bias": true, "kernel_initializer": {"class_name": "GlorotUniform", "config": {"seed": null}}, "bias_initializer": {"class_name": "Zeros", "config": {}}, "kernel_regularizer": null, "bias_regularizer": null, "activity_regularizer": null, "kernel_constraint": null, "bias_constraint": null}, "name": "dense_2", "inbound_nodes": [[["dropout_1", 0, 0, {}]]]}, {"class_name": "Functional", "config": {"name": "mobilenetv2_1.00_160", "layers": [{"class_name": "InputLayer", "config": {"batch_input_shape": [null, 160, 160, 3], "dtype": "float32", "sparse": false, "ragged": false, "name": "input_1"}, "name": "input_1", "inbound_nodes": [], "shared_object_id": 0}, {"class_name": "Conv2D", "config": {"name": "Conv1", "trainable": false, "dtype": "float32", "filters": 32, "kernel_size": [3, 3], "strides": [2, 2], "padding": "same", "data_format": "channels_last", "dilation_rate": [1, 1], "groups": 1, "activation": "linear", "use_bias": false, "kernel_initializer": {"class_name": "GlorotUniform", "config": {"seed": null}, "shared_object_id": 1}, "bias_initializer": {"class_name": "Zeros", "config": {}, "shared_object_id": 2}, "kernel_regularizer": null, "bias_regularizer": null, "activity_regularizer": null, "kernel_constraint": null, "bias_constraint": null}, "name": "Conv1", "inbound_nodes": [[["input_1", 0, 0, {}]]], "shared_object_id": 3}, {"class_name": "BatchNormalization", "config": {"name": "bn_Conv1", "trainable": false, "dtype": "float32", "axis": [3], "momentum": 0.999, "epsilon": 0.001, "center": true, "scale": true, "beta_initializer": {"class_name": "Zeros", "config": {}, "shared_object_id": 4}, "gamma_initializer": {"class_name": "Ones", "config": {}, "shared_object_id": 5}, "moving_mean_initializer": {"class_name": "Zeros", "config": {}, "shared_object_id": 6}, "moving_variance_initializer": {"class_name": "Ones", "config": {}, "shared_object_id": 7}, "beta_regularizer": null, "gamma_regularizer": null, "beta_constraint": null, "gamma_constraint": null}, "name": "bn_Conv1", "inbound_nodes": [[["Conv1", 0, 0, {}]]], "shared_object_id": 8}, {"class_name": "ReLU", "config": {"name": "Conv1_relu", "trainable": false, "dtype": "float32", "max_value": 6.0, "negative_slope": 0.0, "threshold": 0.0}, "name": "Conv1_relu", "inbound_nodes": [[["bn_Conv1", 0, 0, {}]]], "shared_object_id": 9}, {"class_name": "DepthwiseConv2D", "config": {"name": "expanded_conv_depthwise", "trainable": false, "dtype": "float32", "kernel_size": [3, 3], "strides": [1, 1], "padding": "same", "data_format": "channels_last", "dilation_rate": [1, 1], "groups": 1, "activation": "linear", "use_bias": false, "bias_initializer": {"class_name": "Zeros", "config": {}, "shared_object_id": 11}, "bias_regularizer": null, "activity_regularizer": null, "bias_constraint": null, "depth_multiplier": 1, "depthwise_initializer": {"class_name": "GlorotUniform", "config": {"seed": null}, "shared_object_id": 12}, "depthwise_regularizer": null, "depthwise_constraint": null}, "name": "expanded_conv_depthwise", "inbound_nodes": [[["Conv1_relu", 0, 0, {}]]], "shared_object_id": 13}, {"class_name": "BatchNormalization", "config": {"name": "expanded_conv_depthwise_BN", "trainable": false, "dtype": "float32", "axis": [3], "momentum": 0.999, "epsilon": 0.001, "center": true, "scale": true, "beta_initializer": {"class_name": "Zeros", "config": {}, "shared_object_id": 14}, "gamma_initializer": {"class_name": "Ones", "config": {}, "shared_object_id": 15}, "moving_mean_initializer": {"class_name": "Zeros", "config": {}, "shared_object_id": 16}, "moving_variance_initializer": {"class_name": "Ones", "config": {}, "shared_object_id": 17}, "beta_regularizer": null, "gamma_regularizer": null, "beta_constraint": null, "gamma_constraint": null}, "name": "expanded_conv_depthwise_BN", "inbound_nodes": [[["expanded_conv_depthwise", 0, 0, {}]]], "shared_object_id": 18}, {"class_name": "ReLU", "config": {"name": "expanded_conv_depthwise_relu", "trainable": false, "dtype": "float32", "max_value": 6.0, "negative_slope": 0.0, "threshold": 0.0}, "name": "expanded_conv_depthwise_relu", "inbound_nodes": [[["expanded_conv_depthwise_BN", 0, 0, {}]]], "shared_object_id": 19}, {"class_name": "Conv2D", "config": {"name": "expanded_conv_project", "trainable": false, "dtype": "float32", "filters": 16, "kernel_size": [1, 1], "strides": [1, 1], "padding": "same", "data_format": "channels_last", "dilation_rate": [1, 1], "groups": 1, "activation": "linear", "use_bias": false, "kernel_initializer": {"class_name": "GlorotUniform", "config": {"seed": null}, "shared_object_id": 20}, "bias_initializer": {"class_name": "Zeros", "config": {}, "shared_object_id": 21}, "kernel_regularizer": null, "bias_regularizer": null, "activity_regularizer": null, "kernel_constraint": null, "bias_constraint": null}, "name": "expanded_conv_project", "inbound_nodes": [[["expanded_conv_depthwise_relu", 0, 0, {}]]], "shared_object_id": 22}, {"class_name": "BatchNormalization", "config": {"name": "expanded_conv_project_BN", "trainable": false, "dtype": "float32", "axis": [3], "momentum": 0.999, "epsilon": 0.001, "center": true, "scale": true, "beta_initializer": {"class_name": "Zeros", "config": {}, "shared_object_id": 23}, "gamma_initializer": {"class_name": "Ones", "config": {}, "shared_object_id": 24}, "moving_mean_initializer": {"class_name": "Zeros", "config": {}, "shared_object_id": 25}, "moving_variance_initializer": {"class_name": "Ones", "config": {}, "shared_object_id": 26}, "beta_regularizer": null, "gamma_regularizer": null, "beta_constraint": null, "gamma_constraint": null}, "name": "expanded_conv_project_BN", "inbound_nodes": [[["expanded_conv_project", 0, 0, {}]]], "shared_object_id": 27}, {"class_name": "Conv2D", "config": {"name": "block_1_expand", "trainable": false, "dtype": "float32", "filters": 96, "kernel_size": [1, 1], "strides": [1, 1], "padding": "same", "data_format": "channels_last", "dilation_rate": [1, 1], "groups": 1, "activation": "linear", "use_bias": false, "kernel_initializer": {"class_name": "GlorotUniform", "config": {"seed": null}, "shared_object_id": 28}, "bias_initializer": {"class_name": "Zeros", "config": {}, "shared_object_id": 29}, "kernel_regularizer": null, "bias_regularizer": null, "activity_regularizer": null, "kernel_constraint": null, "bias_constraint": null}, "name": "block_1_expand", "inbound_nodes": [[["expanded_conv_project_BN", 0, 0, {}]]], "shared_object_id": 30}, {"class_name": "BatchNormalization", "config": {"name": "block_1_expand_BN", "trainable": false, "dtype": "float32", "axis": [3], "momentum": 0.999, "epsilon": 0.001, "center": true, "scale": true, "beta_initializer": {"class_name": "Zeros", "config": {}, "shared_object_id": 31}, "gamma_initializer": {"class_name": "Ones", "config": {}, "shared_object_id": 32}, "moving_mean_initializer": {"class_name": "Zeros", "config": {}, "shared_object_id": 33}, "moving_variance_initializer": {"class_name": "Ones", "config": {}, "shared_object_id": 34}, "beta_regularizer": null, "gamma_regularizer": null, "beta_constraint": null, "gamma_constraint": null}, "name": "block_1_expand_BN", "inbound_nodes": [[["block_1_expand", 0, 0, {}]]], "shared_object_id": 35}, {"class_name": "ReLU", "config": {"name": "block_1_expand_relu", "trainable": false, "dtype": "float32", "max_value": 6.0, "negative_slope": 0.0, "threshold": 0.0}, "name": "block_1_expand_relu", "inbound_nodes": [[["block_1_expand_BN", 0, 0, {}]]], "shared_object_id": 36}, {"class_name": "ZeroPadding2D", "config": {"name": "block_1_pad", "trainable": false, "dtype": "float32", "padding": [[0, 1], [0, 1]], "data_format": "channels_last"}, "name": "block_1_pad", "inbound_nodes": [[["block_1_expand_relu", 0, 0, {}]]], "shared_object_id": 37}, {"class_name": "DepthwiseConv2D", "config": {"name": "block_1_depthwise", "trainable": false, "dtype": "float32", "kernel_size": [3, 3], "strides": [2, 2], "padding": "valid", "data_format": "channels_last", "dilation_rate": [1, 1], "groups": 1, "activation": "linear", "use_bias": false, "bias_initializer": {"class_name": "Zeros", "config": {}, "shared_object_id": 39}, "bias_regularizer": null, "activity_regularizer": null, "bias_constraint": null, "depth_multiplier": 1, "depthwise_initializer": {"class_name": "GlorotUniform", "config": {"seed": null}, "shared_object_id": 40}, "depthwise_regularizer": null, "depthwise_constraint": null}, "name": "block_1_depthwise", "inbound_nodes": [[["block_1_pad", 0, 0, {}]]], "shared_object_id": 41}, {"class_name": "BatchNormalization", "config": {"name": "block_1_depthwise_BN", "trainable": false, "dtype": "float32", "axis": [3], "momentum": 0.999, "epsilon": 0.001, "center": true, "scale": true, "beta_initializer": {"class_name": "Zeros", "config": {}, "shared_object_id": 42}, "gamma_initializer": {"class_name": "Ones", "config": {}, "shared_object_id": 43}, "moving_mean_initializer": {"class_name": "Zeros", "config": {}, "shared_object_id": 44}, "moving_variance_initializer": {"class_name": "Ones", "config": {}, "shared_object_id": 45}, "beta_regularizer": null, "gamma_regularizer": null, "beta_constraint": null, "gamma_constraint": null}, "name": "block_1_depthwise_BN", "inbound_nodes": [[["block_1_depthwise", 0, 0, {}]]], "shared_object_id": 46}, {"class_name": "ReLU", "config": {"name": "block_1_depthwise_relu", "trainable": false, "dtype": "float32", "max_value": 6.0, "negative_slope": 0.0, "threshold": 0.0}, "name": "block_1_depthwise_relu", "inbound_nodes": [[["block_1_depthwise_BN", 0, 0, {}]]], "shared_object_id": 47}, {"class_name": "Conv2D", "config": {"name": "block_1_project", "trainable": false, "dtype": "float32", "filters": 24, "kernel_size": [1, 1], "strides": [1, 1], "padding": "same", "data_format": "channels_last", "dilation_rate": [1, 1], "groups": 1, "activation": "linear", "use_bias": false, "kernel_initializer": {"class_name": "GlorotUniform", "config": {"seed": null}, "shared_object_id": 48}, "bias_initializer": {"class_name": "Zeros", "config": {}, "shared_object_id": 49}, "kernel_regularizer": null, "bias_regularizer": null, "activity_regularizer": null, "kernel_constraint": null, "bias_constraint": null}, "name": "block_1_project", "inbound_nodes": [[["block_1_depthwise_relu", 0, 0, {}]]], "shared_object_id": 50}, {"class_name": "BatchNormalization", "config": {"name": "block_1_project_BN", "trainable": false, "dtype": "float32", "axis": [3], "momentum": 0.999, "epsilon": 0.001, "center": true, "scale": true, "beta_initializer": {"class_name": "Zeros", "config": {}, "shared_object_id": 51}, "gamma_initializer": {"class_name": "Ones", "config": {}, "shared_object_id": 52}, "moving_mean_initializer": {"class_name": "Zeros", "config": {}, "shared_object_id": 53}, "moving_variance_initializer": {"class_name": "Ones", "config": {}, "shared_object_id": 54}, "beta_regularizer": null, "gamma_regularizer": null, "beta_constraint": null, "gamma_constraint": null}, "name": "block_1_project_BN", "inbound_nodes": [[["block_1_project", 0, 0, {}]]], "shared_object_id": 55}, {"class_name": "Conv2D", "config": {"name": "block_2_expand", "trainable": false, "dtype": "float32", "filters": 144, "kernel_size": [1, 1], "strides": [1, 1], "padding": "same", "data_format": "channels_last", "dilation_rate": [1, 1], "groups": 1, "activation": "linear", "use_bias": false, "kernel_initializer": {"class_name": "GlorotUniform", "config": {"seed": null}, "shared_object_id": 56}, "bias_initializer": {"class_name": "Zeros", "config": {}, "shared_object_id": 57}, "kernel_regularizer": null, "bias_regularizer": null, "activity_regularizer": null, "kernel_constraint": null, "bias_constraint": null}, "name": "block_2_expand", "inbound_nodes": [[["block_1_project_BN", 0, 0, {}]]], "shared_object_id": 58}, {"class_name": "BatchNormalization", "config": {"name": "block_2_expand_BN", "trainable": false, "dtype": "float32", "axis": [3], "momentum": 0.999, "epsilon": 0.001, "center": true, "scale": true, "beta_initializer": {"class_name": "Zeros", "config": {}, "shared_object_id": 59}, "gamma_initializer": {"class_name": "Ones", "config": {}, "shared_object_id": 60}, "moving_mean_initializer": {"class_name": "Zeros", "config": {}, "shared_object_id": 61}, "moving_variance_initializer": {"class_name": "Ones", "config": {}, "shared_object_id": 62}, "beta_regularizer": null, "gamma_regularizer": null, "beta_constraint": null, "gamma_constraint": null}, "name": "block_2_expand_BN", "inbound_nodes": [[["block_2_expand", 0, 0, {}]]], "shared_object_id": 63}, {"class_name": "ReLU", "config": {"name": "block_2_expand_relu", "trainable": false, "dtype": "float32", "max_value": 6.0, "negative_slope": 0.0, "threshold": 0.0}, "name": "block_2_expand_relu", "inbound_nodes": [[["block_2_expand_BN", 0, 0, {}]]], "shared_object_id": 64}, {"class_name": "DepthwiseConv2D", "config": {"name": "block_2_depthwise", "trainable": false, "dtype": "float32", "kernel_size": [3, 3], "strides": [1, 1], "padding": "same", "data_format": "channels_last", "dilation_rate": [1, 1], "groups": 1, "activation": "linear", "use_bias": false, "bias_initializer": {"class_name": "Zeros", "config": {}, "shared_object_id": 66}, "bias_regularizer": null, "activity_regularizer": null, "bias_constraint": null, "depth_multiplier": 1, "depthwise_initializer": {"class_name": "GlorotUniform", "config": {"seed": null}, "shared_object_id": 67}, "depthwise_regularizer": null, "depthwise_constraint": null}, "name": "block_2_depthwise", "inbound_nodes": [[["block_2_expand_relu", 0, 0, {}]]], "shared_object_id": 68}, {"class_name": "BatchNormalization", "config": {"name": "block_2_depthwise_BN", "trainable": false, "dtype": "float32", "axis": [3], "momentum": 0.999, "epsilon": 0.001, "center": true, "scale": true, "beta_initializer": {"class_name": "Zeros", "config": {}, "shared_object_id": 69}, "gamma_initializer": {"class_name": "Ones", "config": {}, "shared_object_id": 70}, "moving_mean_initializer": {"class_name": "Zeros", "config": {}, "shared_object_id": 71}, "moving_variance_initializer": {"class_name": "Ones", "config": {}, "shared_object_id": 72}, "beta_regularizer": null, "gamma_regularizer": null, "beta_constraint": null, "gamma_constraint": null}, "name": "block_2_depthwise_BN", "inbound_nodes": [[["block_2_depthwise", 0, 0, {}]]], "shared_object_id": 73}, {"class_name": "ReLU", "config": {"name": "block_2_depthwise_relu", "trainable": false, "dtype": "float32", "max_value": 6.0, "negative_slope": 0.0, "threshold": 0.0}, "name": "block_2_depthwise_relu", "inbound_nodes": [[["block_2_depthwise_BN", 0, 0, {}]]], "shared_object_id": 74}, {"class_name": "Conv2D", "config": {"name": "block_2_project", "trainable": false, "dtype": "float32", "filters": 24, "kernel_size": [1, 1], "strides": [1, 1], "padding": "same", "data_format": "channels_last", "dilation_rate": [1, 1], "groups": 1, "activation": "linear", "use_bias": false, "kernel_initializer": {"class_name": "GlorotUniform", "config": {"seed": null}, "shared_object_id": 75}, "bias_initializer": {"class_name": "Zeros", "config": {}, "shared_object_id": 76}, "kernel_regularizer": null, "bias_regularizer": null, "activity_regularizer": null, "kernel_constraint": null, "bias_constraint": null}, "name": "block_2_project", "inbound_nodes": [[["block_2_depthwise_relu", 0, 0, {}]]], "shared_object_id": 77}, {"class_name": "BatchNormalization", "config": {"name": "block_2_project_BN", "trainable": false, "dtype": "float32", "axis": [3], "momentum": 0.999, "epsilon": 0.001, "center": true, "scale": true, "beta_initializer": {"class_name": "Zeros", "config": {}, "shared_object_id": 78}, "gamma_initializer": {"class_name": "Ones", "config": {}, "shared_object_id": 79}, "moving_mean_initializer": {"class_name": "Zeros", "config": {}, "shared_object_id": 80}, "moving_variance_initializer": {"class_name": "Ones", "config": {}, "shared_object_id": 81}, "beta_regularizer": null, "gamma_regularizer": null, "beta_constraint": null, "gamma_constraint": null}, "name": "block_2_project_BN", "inbound_nodes": [[["block_2_project", 0, 0, {}]]], "shared_object_id": 82}, {"class_name": "Add", "config": {"name": "block_2_add", "trainable": false, "dtype": "float32"}, "name": "block_2_add", "inbound_nodes": [[["block_1_project_BN", 0, 0, {}], ["block_2_project_BN", 0, 0, {}]]], "shared_object_id": 83}, {"class_name": "Conv2D", "config": {"name": "block_3_expand", "trainable": false, "dtype": "float32", "filters": 144, "kernel_size": [1, 1], "strides": [1, 1], "padding": "same", "data_format": "channels_last", "dilation_rate": [1, 1], "groups": 1, "activation": "linear", "use_bias": false, "kernel_initializer": {"class_name": "GlorotUniform", "config": {"seed": null}, "shared_object_id": 84}, "bias_initializer": {"class_name": "Zeros", "config": {}, "shared_object_id": 85}, "kernel_regularizer": null, "bias_regularizer": null, "activity_regularizer": null, "kernel_constraint": null, "bias_constraint": null}, "name": "block_3_expand", "inbound_nodes": [[["block_2_add", 0, 0, {}]]], "shared_object_id": 86}, {"class_name": "BatchNormalization", "config": {"name": "block_3_expand_BN", "trainable": false, "dtype": "float32", "axis": [3], "momentum": 0.999, "epsilon": 0.001, "center": true, "scale": true, "beta_initializer": {"class_name": "Zeros", "config": {}, "shared_object_id": 87}, "gamma_initializer": {"class_name": "Ones", "config": {}, "shared_object_id": 88}, "moving_mean_initializer": {"class_name": "Zeros", "config": {}, "shared_object_id": 89}, "moving_variance_initializer": {"class_name": "Ones", "config": {}, "shared_object_id": 90}, "beta_regularizer": null, "gamma_regularizer": null, "beta_constraint": null, "gamma_constraint": null}, "name": "block_3_expand_BN", "inbound_nodes": [[["block_3_expand", 0, 0, {}]]], "shared_object_id": 91}, {"class_name": "ReLU", "config": {"name": "block_3_expand_relu", "trainable": false, "dtype": "float32", "max_value": 6.0, "negative_slope": 0.0, "threshold": 0.0}, "name": "block_3_expand_relu", "inbound_nodes": [[["block_3_expand_BN", 0, 0, {}]]], "shared_object_id": 92}, {"class_name": "ZeroPadding2D", "config": {"name": "block_3_pad", "trainable": false, "dtype": "float32", "padding": [[0, 1], [0, 1]], "data_format": "channels_last"}, "name": "block_3_pad", "inbound_nodes": [[["block_3_expand_relu", 0, 0, {}]]], "shared_object_id": 93}, {"class_name": "DepthwiseConv2D", "config": {"name": "block_3_depthwise", "trainable": false, "dtype": "float32", "kernel_size": [3, 3], "strides": [2, 2], "padding": "valid", "data_format": "channels_last", "dilation_rate": [1, 1], "groups": 1, "activation": "linear", "use_bias": false, "bias_initializer": {"class_name": "Zeros", "config": {}, "shared_object_id": 95}, "bias_regularizer": null, "activity_regularizer": null, "bias_constraint": null, "depth_multiplier": 1, "depthwise_initializer": {"class_name": "GlorotUniform", "config": {"seed": null}, "shared_object_id": 96}, "depthwise_regularizer": null, "depthwise_constraint": null}, "name": "block_3_depthwise", "inbound_nodes": [[["block_3_pad", 0, 0, {}]]], "shared_object_id": 97}, {"class_name": "BatchNormalization", "config": {"name": "block_3_depthwise_BN", "trainable": false, "dtype": "float32", "axis": [3], "momentum": 0.999, "epsilon": 0.001, "center": true, "scale": true, "beta_initializer": {"class_name": "Zeros", "config": {}, "shared_object_id": 98}, "gamma_initializer": {"class_name": "Ones", "config": {}, "shared_object_id": 99}, "moving_mean_initializer": {"class_name": "Zeros", "config": {}, "shared_object_id": 100}, "moving_variance_initializer": {"class_name": "Ones", "config": {}, "shared_object_id": 101}, "beta_regularizer": null, "gamma_regularizer": null, "beta_constraint": null, "gamma_constraint": null}, "name": "block_3_depthwise_BN", "inbound_nodes": [[["block_3_depthwise", 0, 0, {}]]], "shared_object_id": 102}, {"class_name": "ReLU", "config": {"name": "block_3_depthwise_relu", "trainable": false, "dtype": "float32", "max_value": 6.0, "negative_slope": 0.0, "threshold": 0.0}, "name": "block_3_depthwise_relu", "inbound_nodes": [[["block_3_depthwise_BN", 0, 0, {}]]], "shared_object_id": 103}, {"class_name": "Conv2D", "config": {"name": "block_3_project", "trainable": false, "dtype": "float32", "filters": 32, "kernel_size": [1, 1], "strides": [1, 1], "padding": "same", "data_format": "channels_last", "dilation_rate": [1, 1], "groups": 1, "activation": "linear", "use_bias": false, "kernel_initializer": {"class_name": "GlorotUniform", "config": {"seed": null}, "shared_object_id": 104}, "bias_initializer": {"class_name": "Zeros", "config": {}, "shared_object_id": 105}, "kernel_regularizer": null, "bias_regularizer": null, "activity_regularizer": null, "kernel_constraint": null, "bias_constraint": null}, "name": "block_3_project", "inbound_nodes": [[["block_3_depthwise_relu", 0, 0, {}]]], "shared_object_id": 106}, {"class_name": "BatchNormalization", "config": {"name": "block_3_project_BN", "trainable": false, "dtype": "float32", "axis": [3], "momentum": 0.999, "epsilon": 0.001, "center": true, "scale": true, "beta_initializer": {"class_name": "Zeros", "config": {}, "shared_object_id": 107}, "gamma_initializer": {"class_name": "Ones", "config": {}, "shared_object_id": 108}, "moving_mean_initializer": {"class_name": "Zeros", "config": {}, "shared_object_id": 109}, "moving_variance_initializer": {"class_name": "Ones", "config": {}, "shared_object_id": 110}, "beta_regularizer": null, "gamma_regularizer": null, "beta_constraint": null, "gamma_constraint": null}, "name": "block_3_project_BN", "inbound_nodes": [[["block_3_project", 0, 0, {}]]], "shared_object_id": 111}, {"class_name": "Conv2D", "config": {"name": "block_4_expand", "trainable": false, "dtype": "float32", "filters": 192, "kernel_size": [1, 1], "strides": [1, 1], "padding": "same", "data_format": "channels_last", "dilation_rate": [1, 1], "groups": 1, "activation": "linear", "use_bias": false, "kernel_initializer": {"class_name": "GlorotUniform", "config": {"seed": null}, "shared_object_id": 112}, "bias_initializer": {"class_name": "Zeros", "config": {}, "shared_object_id": 113}, "kernel_regularizer": null, "bias_regularizer": null, "activity_regularizer": null, "kernel_constraint": null, "bias_constraint": null}, "name": "block_4_expand", "inbound_nodes": [[["block_3_project_BN", 0, 0, {}]]], "shared_object_id": 114}, {"class_name": "BatchNormalization", "config": {"name": "block_4_expand_BN", "trainable": false, "dtype": "float32", "axis": [3], "momentum": 0.999, "epsilon": 0.001, "center": true, "scale": true, "beta_initializer": {"class_name": "Zeros", "config": {}, "shared_object_id": 115}, "gamma_initializer": {"class_name": "Ones", "config": {}, "shared_object_id": 116}, "moving_mean_initializer": {"class_name": "Zeros", "config": {}, "shared_object_id": 117}, "moving_variance_initializer": {"class_name": "Ones", "config": {}, "shared_object_id": 118}, "beta_regularizer": null, "gamma_regularizer": null, "beta_constraint": null, "gamma_constraint": null}, "name": "block_4_expand_BN", "inbound_nodes": [[["block_4_expand", 0, 0, {}]]], "shared_object_id": 119}, {"class_name": "ReLU", "config": {"name": "block_4_expand_relu", "trainable": false, "dtype": "float32", "max_value": 6.0, "negative_slope": 0.0, "threshold": 0.0}, "name": "block_4_expand_relu", "inbound_nodes": [[["block_4_expand_BN", 0, 0, {}]]], "shared_object_id": 120}, {"class_name": "DepthwiseConv2D", "config": {"name": "block_4_depthwise", "trainable": false, "dtype": "float32", "kernel_size": [3, 3], "strides": [1, 1], "padding": "same", "data_format": "channels_last", "dilation_rate": [1, 1], "groups": 1, "activation": "linear", "use_bias": false, "bias_initializer": {"class_name": "Zeros", "config": {}, "shared_object_id": 122}, "bias_regularizer": null, "activity_regularizer": null, "bias_constraint": null, "depth_multiplier": 1, "depthwise_initializer": {"class_name": "GlorotUniform", "config": {"seed": null}, "shared_object_id": 123}, "depthwise_regularizer": null, "depthwise_constraint": null}, "name": "block_4_depthwise", "inbound_nodes": [[["block_4_expand_relu", 0, 0, {}]]], "shared_object_id": 124}, {"class_name": "BatchNormalization", "config": {"name": "block_4_depthwise_BN", "trainable": false, "dtype": "float32", "axis": [3], "momentum": 0.999, "epsilon": 0.001, "center": true, "scale": true, "beta_initializer": {"class_name": "Zeros", "config": {}, "shared_object_id": 125}, "gamma_initializer": {"class_name": "Ones", "config": {}, "shared_object_id": 126}, "moving_mean_initializer": {"class_name": "Zeros", "config": {}, "shared_object_id": 127}, "moving_variance_initializer": {"class_name": "Ones", "config": {}, "shared_object_id": 128}, "beta_regularizer": null, "gamma_regularizer": null, "beta_constraint": null, "gamma_constraint": null}, "name": "block_4_depthwise_BN", "inbound_nodes": [[["block_4_depthwise", 0, 0, {}]]], "shared_object_id": 129}, {"class_name": "ReLU", "config": {"name": "block_4_depthwise_relu", "trainable": false, "dtype": "float32", "max_value": 6.0, "negative_slope": 0.0, "threshold": 0.0}, "name": "block_4_depthwise_relu", "inbound_nodes": [[["block_4_depthwise_BN", 0, 0, {}]]], "shared_object_id": 130}, {"class_name": "Conv2D", "config": {"name": "block_4_project", "trainable": false, "dtype": "float32", "filters": 32, "kernel_size": [1, 1], "strides": [1, 1], "padding": "same", "data_format": "channels_last", "dilation_rate": [1, 1], "groups": 1, "activation": "linear", "use_bias": false, "kernel_initializer": {"class_name": "GlorotUniform", "config": {"seed": null}, "shared_object_id": 131}, "bias_initializer": {"class_name": "Zeros", "config": {}, "shared_object_id": 132}, "kernel_regularizer": null, "bias_regularizer": null, "activity_regularizer": null, "kernel_constraint": null, "bias_constraint": null}, "name": "block_4_project", "inbound_nodes": [[["block_4_depthwise_relu", 0, 0, {}]]], "shared_object_id": 133}, {"class_name": "BatchNormalization", "config": {"name": "block_4_project_BN", "trainable": false, "dtype": "float32", "axis": [3], "momentum": 0.999, "epsilon": 0.001, "center": true, "scale": true, "beta_initializer": {"class_name": "Zeros", "config": {}, "shared_object_id": 134}, "gamma_initializer": {"class_name": "Ones", "config": {}, "shared_object_id": 135}, "moving_mean_initializer": {"class_name": "Zeros", "config": {}, "shared_object_id": 136}, "moving_variance_initializer": {"class_name": "Ones", "config": {}, "shared_object_id": 137}, "beta_regularizer": null, "gamma_regularizer": null, "beta_constraint": null, "gamma_constraint": null}, "name": "block_4_project_BN", "inbound_nodes": [[["block_4_project", 0, 0, {}]]], "shared_object_id": 138}, {"class_name": "Add", "config": {"name": "block_4_add", "trainable": false, "dtype": "float32"}, "name": "block_4_add", "inbound_nodes": [[["block_3_project_BN", 0, 0, {}], ["block_4_project_BN", 0, 0, {}]]], "shared_object_id": 139}, {"class_name": "Conv2D", "config": {"name": "block_5_expand", "trainable": false, "dtype": "float32", "filters": 192, "kernel_size": [1, 1], "strides": [1, 1], "padding": "same", "data_format": "channels_last", "dilation_rate": [1, 1], "groups": 1, "activation": "linear", "use_bias": false, "kernel_initializer": {"class_name": "GlorotUniform", "config": {"seed": null}, "shared_object_id": 140}, "bias_initializer": {"class_name": "Zeros", "config": {}, "shared_object_id": 141}, "kernel_regularizer": null, "bias_regularizer": null, "activity_regularizer": null, "kernel_constraint": null, "bias_constraint": null}, "name": "block_5_expand", "inbound_nodes": [[["block_4_add", 0, 0, {}]]], "shared_object_id": 142}, {"class_name": "BatchNormalization", "config": {"name": "block_5_expand_BN", "trainable": false, "dtype": "float32", "axis": [3], "momentum": 0.999, "epsilon": 0.001, "center": true, "scale": true, "beta_initializer": {"class_name": "Zeros", "config": {}, "shared_object_id": 143}, "gamma_initializer": {"class_name": "Ones", "config": {}, "shared_object_id": 144}, "moving_mean_initializer": {"class_name": "Zeros", "config": {}, "shared_object_id": 145}, "moving_variance_initializer": {"class_name": "Ones", "config": {}, "shared_object_id": 146}, "beta_regularizer": null, "gamma_regularizer": null, "beta_constraint": null, "gamma_constraint": null}, "name": "block_5_expand_BN", "inbound_nodes": [[["block_5_expand", 0, 0, {}]]], "shared_object_id": 147}, {"class_name": "ReLU", "config": {"name": "block_5_expand_relu", "trainable": false, "dtype": "float32", "max_value": 6.0, "negative_slope": 0.0, "threshold": 0.0}, "name": "block_5_expand_relu", "inbound_nodes": [[["block_5_expand_BN", 0, 0, {}]]], "shared_object_id": 148}, {"class_name": "DepthwiseConv2D", "config": {"name": "block_5_depthwise", "trainable": false, "dtype": "float32", "kernel_size": [3, 3], "strides": [1, 1], "padding": "same", "data_format": "channels_last", "dilation_rate": [1, 1], "groups": 1, "activation": "linear", "use_bias": false, "bias_initializer": {"class_name": "Zeros", "config": {}, "shared_object_id": 150}, "bias_regularizer": null, "activity_regularizer": null, "bias_constraint": null, "depth_multiplier": 1, "depthwise_initializer": {"class_name": "GlorotUniform", "config": {"seed": null}, "shared_object_id": 151}, "depthwise_regularizer": null, "depthwise_constraint": null}, "name": "block_5_depthwise", "inbound_nodes": [[["block_5_expand_relu", 0, 0, {}]]], "shared_object_id": 152}, {"class_name": "BatchNormalization", "config": {"name": "block_5_depthwise_BN", "trainable": false, "dtype": "float32", "axis": [3], "momentum": 0.999, "epsilon": 0.001, "center": true, "scale": true, "beta_initializer": {"class_name": "Zeros", "config": {}, "shared_object_id": 153}, "gamma_initializer": {"class_name": "Ones", "config": {}, "shared_object_id": 154}, "moving_mean_initializer": {"class_name": "Zeros", "config": {}, "shared_object_id": 155}, "moving_variance_initializer": {"class_name": "Ones", "config": {}, "shared_object_id": 156}, "beta_regularizer": null, "gamma_regularizer": null, "beta_constraint": null, "gamma_constraint": null}, "name": "block_5_depthwise_BN", "inbound_nodes": [[["block_5_depthwise", 0, 0, {}]]], "shared_object_id": 157}, {"class_name": "ReLU", "config": {"name": "block_5_depthwise_relu", "trainable": false, "dtype": "float32", "max_value": 6.0, "negative_slope": 0.0, "threshold": 0.0}, "name": "block_5_depthwise_relu", "inbound_nodes": [[["block_5_depthwise_BN", 0, 0, {}]]], "shared_object_id": 158}, {"class_name": "Conv2D", "config": {"name": "block_5_project", "trainable": false, "dtype": "float32", "filters": 32, "kernel_size": [1, 1], "strides": [1, 1], "padding": "same", "data_format": "channels_last", "dilation_rate": [1, 1], "groups": 1, "activation": "linear", "use_bias": false, "kernel_initializer": {"class_name": "GlorotUniform", "config": {"seed": null}, "shared_object_id": 159}, "bias_initializer": {"class_name": "Zeros", "config": {}, "shared_object_id": 160}, "kernel_regularizer": null, "bias_regularizer": null, "activity_regularizer": null, "kernel_constraint": null, "bias_constraint": null}, "name": "block_5_project", "inbound_nodes": [[["block_5_depthwise_relu", 0, 0, {}]]], "shared_object_id": 161}, {"class_name": "BatchNormalization", "config": {"name": "block_5_project_BN", "trainable": false, "dtype": "float32", "axis": [3], "momentum": 0.999, "epsilon": 0.001, "center": true, "scale": true, "beta_initializer": {"class_name": "Zeros", "config": {}, "shared_object_id": 162}, "gamma_initializer": {"class_name": "Ones", "config": {}, "shared_object_id": 163}, "moving_mean_initializer": {"class_name": "Zeros", "config": {}, "shared_object_id": 164}, "moving_variance_initializer": {"class_name": "Ones", "config": {}, "shared_object_id": 165}, "beta_regularizer": null, "gamma_regularizer": null, "beta_constraint": null, "gamma_constraint": null}, "name": "block_5_project_BN", "inbound_nodes": [[["block_5_project", 0, 0, {}]]], "shared_object_id": 166}, {"class_name": "Add", "config": {"name": "block_5_add", "trainable": false, "dtype": "float32"}, "name": "block_5_add", "inbound_nodes": [[["block_4_add", 0, 0, {}], ["block_5_project_BN", 0, 0, {}]]], "shared_object_id": 167}, {"class_name": "Conv2D", "config": {"name": "block_6_expand", "trainable": false, "dtype": "float32", "filters": 192, "kernel_size": [1, 1], "strides": [1, 1], "padding": "same", "data_format": "channels_last", "dilation_rate": [1, 1], "groups": 1, "activation": "linear", "use_bias": false, "kernel_initializer": {"class_name": "GlorotUniform", "config": {"seed": null}, "shared_object_id": 168}, "bias_initializer": {"class_name": "Zeros", "config": {}, "shared_object_id": 169}, "kernel_regularizer": null, "bias_regularizer": null, "activity_regularizer": null, "kernel_constraint": null, "bias_constraint": null}, "name": "block_6_expand", "inbound_nodes": [[["block_5_add", 0, 0, {}]]], "shared_object_id": 170}, {"class_name": "BatchNormalization", "config": {"name": "block_6_expand_BN", "trainable": false, "dtype": "float32", "axis": [3], "momentum": 0.999, "epsilon": 0.001, "center": true, "scale": true, "beta_initializer": {"class_name": "Zeros", "config": {}, "shared_object_id": 171}, "gamma_initializer": {"class_name": "Ones", "config": {}, "shared_object_id": 172}, "moving_mean_initializer": {"class_name": "Zeros", "config": {}, "shared_object_id": 173}, "moving_variance_initializer": {"class_name": "Ones", "config": {}, "shared_object_id": 174}, "beta_regularizer": null, "gamma_regularizer": null, "beta_constraint": null, "gamma_constraint": null}, "name": "block_6_expand_BN", "inbound_nodes": [[["block_6_expand", 0, 0, {}]]], "shared_object_id": 175}, {"class_name": "ReLU", "config": {"name": "block_6_expand_relu", "trainable": false, "dtype": "float32", "max_value": 6.0, "negative_slope": 0.0, "threshold": 0.0}, "name": "block_6_expand_relu", "inbound_nodes": [[["block_6_expand_BN", 0, 0, {}]]], "shared_object_id": 176}, {"class_name": "ZeroPadding2D", "config": {"name": "block_6_pad", "trainable": false, "dtype": "float32", "padding": [[0, 1], [0, 1]], "data_format": "channels_last"}, "name": "block_6_pad", "inbound_nodes": [[["block_6_expand_relu", 0, 0, {}]]], "shared_object_id": 177}, {"class_name": "DepthwiseConv2D", "config": {"name": "block_6_depthwise", "trainable": false, "dtype": "float32", "kernel_size": [3, 3], "strides": [2, 2], "padding": "valid", "data_format": "channels_last", "dilation_rate": [1, 1], "groups": 1, "activation": "linear", "use_bias": false, "bias_initializer": {"class_name": "Zeros", "config": {}, "shared_object_id": 179}, "bias_regularizer": null, "activity_regularizer": null, "bias_constraint": null, "depth_multiplier": 1, "depthwise_initializer": {"class_name": "GlorotUniform", "config": {"seed": null}, "shared_object_id": 180}, "depthwise_regularizer": null, "depthwise_constraint": null}, "name": "block_6_depthwise", "inbound_nodes": [[["block_6_pad", 0, 0, {}]]], "shared_object_id": 181}, {"class_name": "BatchNormalization", "config": {"name": "block_6_depthwise_BN", "trainable": false, "dtype": "float32", "axis": [3], "momentum": 0.999, "epsilon": 0.001, "center": true, "scale": true, "beta_initializer": {"class_name": "Zeros", "config": {}, "shared_object_id": 182}, "gamma_initializer": {"class_name": "Ones", "config": {}, "shared_object_id": 183}, "moving_mean_initializer": {"class_name": "Zeros", "config": {}, "shared_object_id": 184}, "moving_variance_initializer": {"class_name": "Ones", "config": {}, "shared_object_id": 185}, "beta_regularizer": null, "gamma_regularizer": null, "beta_constraint": null, "gamma_constraint": null}, "name": "block_6_depthwise_BN", "inbound_nodes": [[["block_6_depthwise", 0, 0, {}]]], "shared_object_id": 186}, {"class_name": "ReLU", "config": {"name": "block_6_depthwise_relu", "trainable": false, "dtype": "float32", "max_value": 6.0, "negative_slope": 0.0, "threshold": 0.0}, "name": "block_6_depthwise_relu", "inbound_nodes": [[["block_6_depthwise_BN", 0, 0, {}]]], "shared_object_id": 187}, {"class_name": "Conv2D", "config": {"name": "block_6_project", "trainable": false, "dtype": "float32", "filters": 64, "kernel_size": [1, 1], "strides": [1, 1], "padding": "same", "data_format": "channels_last", "dilation_rate": [1, 1], "groups": 1, "activation": "linear", "use_bias": false, "kernel_initializer": {"class_name": "GlorotUniform", "config": {"seed": null}, "shared_object_id": 188}, "bias_initializer": {"class_name": "Zeros", "config": {}, "shared_object_id": 189}, "kernel_regularizer": null, "bias_regularizer": null, "activity_regularizer": null, "kernel_constraint": null, "bias_constraint": null}, "name": "block_6_project", "inbound_nodes": [[["block_6_depthwise_relu", 0, 0, {}]]], "shared_object_id": 190}, {"class_name": "BatchNormalization", "config": {"name": "block_6_project_BN", "trainable": false, "dtype": "float32", "axis": [3], "momentum": 0.999, "epsilon": 0.001, "center": true, "scale": true, "beta_initializer": {"class_name": "Zeros", "config": {}, "shared_object_id": 191}, "gamma_initializer": {"class_name": "Ones", "config": {}, "shared_object_id": 192}, "moving_mean_initializer": {"class_name": "Zeros", "config": {}, "shared_object_id": 193}, "moving_variance_initializer": {"class_name": "Ones", "config": {}, "shared_object_id": 194}, "beta_regularizer": null, "gamma_regularizer": null, "beta_constraint": null, "gamma_constraint": null}, "name": "block_6_project_BN", "inbound_nodes": [[["block_6_project", 0, 0, {}]]], "shared_object_id": 195}, {"class_name": "Conv2D", "config": {"name": "block_7_expand", "trainable": false, "dtype": "float32", "filters": 384, "kernel_size": [1, 1], "strides": [1, 1], "padding": "same", "data_format": "channels_last", "dilation_rate": [1, 1], "groups": 1, "activation": "linear", "use_bias": false, "kernel_initializer": {"class_name": "GlorotUniform", "config": {"seed": null}, "shared_object_id": 196}, "bias_initializer": {"class_name": "Zeros", "config": {}, "shared_object_id": 197}, "kernel_regularizer": null, "bias_regularizer": null, "activity_regularizer": null, "kernel_constraint": null, "bias_constraint": null}, "name": "block_7_expand", "inbound_nodes": [[["block_6_project_BN", 0, 0, {}]]], "shared_object_id": 198}, {"class_name": "BatchNormalization", "config": {"name": "block_7_expand_BN", "trainable": false, "dtype": "float32", "axis": [3], "momentum": 0.999, "epsilon": 0.001, "center": true, "scale": true, "beta_initializer": {"class_name": "Zeros", "config": {}, "shared_object_id": 199}, "gamma_initializer": {"class_name": "Ones", "config": {}, "shared_object_id": 200}, "moving_mean_initializer": {"class_name": "Zeros", "config": {}, "shared_object_id": 201}, "moving_variance_initializer": {"class_name": "Ones", "config": {}, "shared_object_id": 202}, "beta_regularizer": null, "gamma_regularizer": null, "beta_constraint": null, "gamma_constraint": null}, "name": "block_7_expand_BN", "inbound_nodes": [[["block_7_expand", 0, 0, {}]]], "shared_object_id": 203}, {"class_name": "ReLU", "config": {"name": "block_7_expand_relu", "trainable": false, "dtype": "float32", "max_value": 6.0, "negative_slope": 0.0, "threshold": 0.0}, "name": "block_7_expand_relu", "inbound_nodes": [[["block_7_expand_BN", 0, 0, {}]]], "shared_object_id": 204}, {"class_name": "DepthwiseConv2D", "config": {"name": "block_7_depthwise", "trainable": false, "dtype": "float32", "kernel_size": [3, 3], "strides": [1, 1], "padding": "same", "data_format": "channels_last", "dilation_rate": [1, 1], "groups": 1, "activation": "linear", "use_bias": false, "bias_initializer": {"class_name": "Zeros", "config": {}, "shared_object_id": 206}, "bias_regularizer": null, "activity_regularizer": null, "bias_constraint": null, "depth_multiplier": 1, "depthwise_initializer": {"class_name": "GlorotUniform", "config": {"seed": null}, "shared_object_id": 207}, "depthwise_regularizer": null, "depthwise_constraint": null}, "name": "block_7_depthwise", "inbound_nodes": [[["block_7_expand_relu", 0, 0, {}]]], "shared_object_id": 208}, {"class_name": "BatchNormalization", "config": {"name": "block_7_depthwise_BN", "trainable": false, "dtype": "float32", "axis": [3], "momentum": 0.999, "epsilon": 0.001, "center": true, "scale": true, "beta_initializer": {"class_name": "Zeros", "config": {}, "shared_object_id": 209}, "gamma_initializer": {"class_name": "Ones", "config": {}, "shared_object_id": 210}, "moving_mean_initializer": {"class_name": "Zeros", "config": {}, "shared_object_id": 211}, "moving_variance_initializer": {"class_name": "Ones", "config": {}, "shared_object_id": 212}, "beta_regularizer": null, "gamma_regularizer": null, "beta_constraint": null, "gamma_constraint": null}, "name": "block_7_depthwise_BN", "inbound_nodes": [[["block_7_depthwise", 0, 0, {}]]], "shared_object_id": 213}, {"class_name": "ReLU", "config": {"name": "block_7_depthwise_relu", "trainable": false, "dtype": "float32", "max_value": 6.0, "negative_slope": 0.0, "threshold": 0.0}, "name": "block_7_depthwise_relu", "inbound_nodes": [[["block_7_depthwise_BN", 0, 0, {}]]], "shared_object_id": 214}, {"class_name": "Conv2D", "config": {"name": "block_7_project", "trainable": false, "dtype": "float32", "filters": 64, "kernel_size": [1, 1], "strides": [1, 1], "padding": "same", "data_format": "channels_last", "dilation_rate": [1, 1], "groups": 1, "activation": "linear", "use_bias": false, "kernel_initializer": {"class_name": "GlorotUniform", "config": {"seed": null}, "shared_object_id": 215}, "bias_initializer": {"class_name": "Zeros", "config": {}, "shared_object_id": 216}, "kernel_regularizer": null, "bias_regularizer": null, "activity_regularizer": null, "kernel_constraint": null, "bias_constraint": null}, "name": "block_7_project", "inbound_nodes": [[["block_7_depthwise_relu", 0, 0, {}]]], "shared_object_id": 217}, {"class_name": "BatchNormalization", "config": {"name": "block_7_project_BN", "trainable": false, "dtype": "float32", "axis": [3], "momentum": 0.999, "epsilon": 0.001, "center": true, "scale": true, "beta_initializer": {"class_name": "Zeros", "config": {}, "shared_object_id": 218}, "gamma_initializer": {"class_name": "Ones", "config": {}, "shared_object_id": 219}, "moving_mean_initializer": {"class_name": "Zeros", "config": {}, "shared_object_id": 220}, "moving_variance_initializer": {"class_name": "Ones", "config": {}, "shared_object_id": 221}, "beta_regularizer": null, "gamma_regularizer": null, "beta_constraint": null, "gamma_constraint": null}, "name": "block_7_project_BN", "inbound_nodes": [[["block_7_project", 0, 0, {}]]], "shared_object_id": 222}, {"class_name": "Add", "config": {"name": "block_7_add", "trainable": false, "dtype": "float32"}, "name": "block_7_add", "inbound_nodes": [[["block_6_project_BN", 0, 0, {}], ["block_7_project_BN", 0, 0, {}]]], "shared_object_id": 223}, {"class_name": "Conv2D", "config": {"name": "block_8_expand", "trainable": false, "dtype": "float32", "filters": 384, "kernel_size": [1, 1], "strides": [1, 1], "padding": "same", "data_format": "channels_last", "dilation_rate": [1, 1], "groups": 1, "activation": "linear", "use_bias": false, "kernel_initializer": {"class_name": "GlorotUniform", "config": {"seed": null}, "shared_object_id": 224}, "bias_initializer": {"class_name": "Zeros", "config": {}, "shared_object_id": 225}, "kernel_regularizer": null, "bias_regularizer": null, "activity_regularizer": null, "kernel_constraint": null, "bias_constraint": null}, "name": "block_8_expand", "inbound_nodes": [[["block_7_add", 0, 0, {}]]], "shared_object_id": 226}, {"class_name": "BatchNormalization", "config": {"name": "block_8_expand_BN", "trainable": false, "dtype": "float32", "axis": [3], "momentum": 0.999, "epsilon": 0.001, "center": true, "scale": true, "beta_initializer": {"class_name": "Zeros", "config": {}, "shared_object_id": 227}, "gamma_initializer": {"class_name": "Ones", "config": {}, "shared_object_id": 228}, "moving_mean_initializer": {"class_name": "Zeros", "config": {}, "shared_object_id": 229}, "moving_variance_initializer": {"class_name": "Ones", "config": {}, "shared_object_id": 230}, "beta_regularizer": null, "gamma_regularizer": null, "beta_constraint": null, "gamma_constraint": null}, "name": "block_8_expand_BN", "inbound_nodes": [[["block_8_expand", 0, 0, {}]]], "shared_object_id": 231}, {"class_name": "ReLU", "config": {"name": "block_8_expand_relu", "trainable": false, "dtype": "float32", "max_value": 6.0, "negative_slope": 0.0, "threshold": 0.0}, "name": "block_8_expand_relu", "inbound_nodes": [[["block_8_expand_BN", 0, 0, {}]]], "shared_object_id": 232}, {"class_name": "DepthwiseConv2D", "config": {"name": "block_8_depthwise", "trainable": false, "dtype": "float32", "kernel_size": [3, 3], "strides": [1, 1], "padding": "same", "data_format": "channels_last", "dilation_rate": [1, 1], "groups": 1, "activation": "linear", "use_bias": false, "bias_initializer": {"class_name": "Zeros", "config": {}, "shared_object_id": 234}, "bias_regularizer": null, "activity_regularizer": null, "bias_constraint": null, "depth_multiplier": 1, "depthwise_initializer": {"class_name": "GlorotUniform", "config": {"seed": null}, "shared_object_id": 235}, "depthwise_regularizer": null, "depthwise_constraint": null}, "name": "block_8_depthwise", "inbound_nodes": [[["block_8_expand_relu", 0, 0, {}]]], "shared_object_id": 236}, {"class_name": "BatchNormalization", "config": {"name": "block_8_depthwise_BN", "trainable": false, "dtype": "float32", "axis": [3], "momentum": 0.999, "epsilon": 0.001, "center": true, "scale": true, "beta_initializer": {"class_name": "Zeros", "config": {}, "shared_object_id": 237}, "gamma_initializer": {"class_name": "Ones", "config": {}, "shared_object_id": 238}, "moving_mean_initializer": {"class_name": "Zeros", "config": {}, "shared_object_id": 239}, "moving_variance_initializer": {"class_name": "Ones", "config": {}, "shared_object_id": 240}, "beta_regularizer": null, "gamma_regularizer": null, "beta_constraint": null, "gamma_constraint": null}, "name": "block_8_depthwise_BN", "inbound_nodes": [[["block_8_depthwise", 0, 0, {}]]], "shared_object_id": 241}, {"class_name": "ReLU", "config": {"name": "block_8_depthwise_relu", "trainable": false, "dtype": "float32", "max_value": 6.0, "negative_slope": 0.0, "threshold": 0.0}, "name": "block_8_depthwise_relu", "inbound_nodes": [[["block_8_depthwise_BN", 0, 0, {}]]], "shared_object_id": 242}, {"class_name": "Conv2D", "config": {"name": "block_8_project", "trainable": false, "dtype": "float32", "filters": 64, "kernel_size": [1, 1], "strides": [1, 1], "padding": "same", "data_format": "channels_last", "dilation_rate": [1, 1], "groups": 1, "activation": "linear", "use_bias": false, "kernel_initializer": {"class_name": "GlorotUniform", "config": {"seed": null}, "shared_object_id": 243}, "bias_initializer": {"class_name": "Zeros", "config": {}, "shared_object_id": 244}, "kernel_regularizer": null, "bias_regularizer": null, "activity_regularizer": null, "kernel_constraint": null, "bias_constraint": null}, "name": "block_8_project", "inbound_nodes": [[["block_8_depthwise_relu", 0, 0, {}]]], "shared_object_id": 245}, {"class_name": "BatchNormalization", "config": {"name": "block_8_project_BN", "trainable": false, "dtype": "float32", "axis": [3], "momentum": 0.999, "epsilon": 0.001, "center": true, "scale": true, "beta_initializer": {"class_name": "Zeros", "config": {}, "shared_object_id": 246}, "gamma_initializer": {"class_name": "Ones", "config": {}, "shared_object_id": 247}, "moving_mean_initializer": {"class_name": "Zeros", "config": {}, "shared_object_id": 248}, "moving_variance_initializer": {"class_name": "Ones", "config": {}, "shared_object_id": 249}, "beta_regularizer": null, "gamma_regularizer": null, "beta_constraint": null, "gamma_constraint": null}, "name": "block_8_project_BN", "inbound_nodes": [[["block_8_project", 0, 0, {}]]], "shared_object_id": 250}, {"class_name": "Add", "config": {"name": "block_8_add", "trainable": false, "dtype": "float32"}, "name": "block_8_add", "inbound_nodes": [[["block_7_add", 0, 0, {}], ["block_8_project_BN", 0, 0, {}]]], "shared_object_id": 251}, {"class_name": "Conv2D", "config": {"name": "block_9_expand", "trainable": false, "dtype": "float32", "filters": 384, "kernel_size": [1, 1], "strides": [1, 1], "padding": "same", "data_format": "channels_last", "dilation_rate": [1, 1], "groups": 1, "activation": "linear", "use_bias": false, "kernel_initializer": {"class_name": "GlorotUniform", "config": {"seed": null}, "shared_object_id": 252}, "bias_initializer": {"class_name": "Zeros", "config": {}, "shared_object_id": 253}, "kernel_regularizer": null, "bias_regularizer": null, "activity_regularizer": null, "kernel_constraint": null, "bias_constraint": null}, "name": "block_9_expand", "inbound_nodes": [[["block_8_add", 0, 0, {}]]], "shared_object_id": 254}, {"class_name": "BatchNormalization", "config": {"name": "block_9_expand_BN", "trainable": false, "dtype": "float32", "axis": [3], "momentum": 0.999, "epsilon": 0.001, "center": true, "scale": true, "beta_initializer": {"class_name": "Zeros", "config": {}, "shared_object_id": 255}, "gamma_initializer": {"class_name": "Ones", "config": {}, "shared_object_id": 256}, "moving_mean_initializer": {"class_name": "Zeros", "config": {}, "shared_object_id": 257}, "moving_variance_initializer": {"class_name": "Ones", "config": {}, "shared_object_id": 258}, "beta_regularizer": null, "gamma_regularizer": null, "beta_constraint": null, "gamma_constraint": null}, "name": "block_9_expand_BN", "inbound_nodes": [[["block_9_expand", 0, 0, {}]]], "shared_object_id": 259}, {"class_name": "ReLU", "config": {"name": "block_9_expand_relu", "trainable": false, "dtype": "float32", "max_value": 6.0, "negative_slope": 0.0, "threshold": 0.0}, "name": "block_9_expand_relu", "inbound_nodes": [[["block_9_expand_BN", 0, 0, {}]]], "shared_object_id": 260}, {"class_name": "DepthwiseConv2D", "config": {"name": "block_9_depthwise", "trainable": false, "dtype": "float32", "kernel_size": [3, 3], "strides": [1, 1], "padding": "same", "data_format": "channels_last", "dilation_rate": [1, 1], "groups": 1, "activation": "linear", "use_bias": false, "bias_initializer": {"class_name": "Zeros", "config": {}, "shared_object_id": 262}, "bias_regularizer": null, "activity_regularizer": null, "bias_constraint": null, "depth_multiplier": 1, "depthwise_initializer": {"class_name": "GlorotUniform", "config": {"seed": null}, "shared_object_id": 263}, "depthwise_regularizer": null, "depthwise_constraint": null}, "name": "block_9_depthwise", "inbound_nodes": [[["block_9_expand_relu", 0, 0, {}]]], "shared_object_id": 264}, {"class_name": "BatchNormalization", "config": {"name": "block_9_depthwise_BN", "trainable": false, "dtype": "float32", "axis": [3], "momentum": 0.999, "epsilon": 0.001, "center": true, "scale": true, "beta_initializer": {"class_name": "Zeros", "config": {}, "shared_object_id": 265}, "gamma_initializer": {"class_name": "Ones", "config": {}, "shared_object_id": 266}, "moving_mean_initializer": {"class_name": "Zeros", "config": {}, "shared_object_id": 267}, "moving_variance_initializer": {"class_name": "Ones", "config": {}, "shared_object_id": 268}, "beta_regularizer": null, "gamma_regularizer": null, "beta_constraint": null, "gamma_constraint": null}, "name": "block_9_depthwise_BN", "inbound_nodes": [[["block_9_depthwise", 0, 0, {}]]], "shared_object_id": 269}, {"class_name": "ReLU", "config": {"name": "block_9_depthwise_relu", "trainable": false, "dtype": "float32", "max_value": 6.0, "negative_slope": 0.0, "threshold": 0.0}, "name": "block_9_depthwise_relu", "inbound_nodes": [[["block_9_depthwise_BN", 0, 0, {}]]], "shared_object_id": 270}, {"class_name": "Conv2D", "config": {"name": "block_9_project", "trainable": false, "dtype": "float32", "filters": 64, "kernel_size": [1, 1], "strides": [1, 1], "padding": "same", "data_format": "channels_last", "dilation_rate": [1, 1], "groups": 1, "activation": "linear", "use_bias": false, "kernel_initializer": {"class_name": "GlorotUniform", "config": {"seed": null}, "shared_object_id": 271}, "bias_initializer": {"class_name": "Zeros", "config": {}, "shared_object_id": 272}, "kernel_regularizer": null, "bias_regularizer": null, "activity_regularizer": null, "kernel_constraint": null, "bias_constraint": null}, "name": "block_9_project", "inbound_nodes": [[["block_9_depthwise_relu", 0, 0, {}]]], "shared_object_id": 273}, {"class_name": "BatchNormalization", "config": {"name": "block_9_project_BN", "trainable": false, "dtype": "float32", "axis": [3], "momentum": 0.999, "epsilon": 0.001, "center": true, "scale": true, "beta_initializer": {"class_name": "Zeros", "config": {}, "shared_object_id": 274}, "gamma_initializer": {"class_name": "Ones", "config": {}, "shared_object_id": 275}, "moving_mean_initializer": {"class_name": "Zeros", "config": {}, "shared_object_id": 276}, "moving_variance_initializer": {"class_name": "Ones", "config": {}, "shared_object_id": 277}, "beta_regularizer": null, "gamma_regularizer": null, "beta_constraint": null, "gamma_constraint": null}, "name": "block_9_project_BN", "inbound_nodes": [[["block_9_project", 0, 0, {}]]], "shared_object_id": 278}, {"class_name": "Add", "config": {"name": "block_9_add", "trainable": false, "dtype": "float32"}, "name": "block_9_add", "inbound_nodes": [[["block_8_add", 0, 0, {}], ["block_9_project_BN", 0, 0, {}]]], "shared_object_id": 279}, {"class_name": "Conv2D", "config": {"name": "block_10_expand", "trainable": false, "dtype": "float32", "filters": 384, "kernel_size": [1, 1], "strides": [1, 1], "padding": "same", "data_format": "channels_last", "dilation_rate": [1, 1], "groups": 1, "activation": "linear", "use_bias": false, "kernel_initializer": {"class_name": "GlorotUniform", "config": {"seed": null}, "shared_object_id": 280}, "bias_initializer": {"class_name": "Zeros", "config": {}, "shared_object_id": 281}, "kernel_regularizer": null, "bias_regularizer": null, "activity_regularizer": null, "kernel_constraint": null, "bias_constraint": null}, "name": "block_10_expand", "inbound_nodes": [[["block_9_add", 0, 0, {}]]], "shared_object_id": 282}, {"class_name": "BatchNormalization", "config": {"name": "block_10_expand_BN", "trainable": false, "dtype": "float32", "axis": [3], "momentum": 0.999, "epsilon": 0.001, "center": true, "scale": true, "beta_initializer": {"class_name": "Zeros", "config": {}, "shared_object_id": 283}, "gamma_initializer": {"class_name": "Ones", "config": {}, "shared_object_id": 284}, "moving_mean_initializer": {"class_name": "Zeros", "config": {}, "shared_object_id": 285}, "moving_variance_initializer": {"class_name": "Ones", "config": {}, "shared_object_id": 286}, "beta_regularizer": null, "gamma_regularizer": null, "beta_constraint": null, "gamma_constraint": null}, "name": "block_10_expand_BN", "inbound_nodes": [[["block_10_expand", 0, 0, {}]]], "shared_object_id": 287}, {"class_name": "ReLU", "config": {"name": "block_10_expand_relu", "trainable": false, "dtype": "float32", "max_value": 6.0, "negative_slope": 0.0, "threshold": 0.0}, "name": "block_10_expand_relu", "inbound_nodes": [[["block_10_expand_BN", 0, 0, {}]]], "shared_object_id": 288}, {"class_name": "DepthwiseConv2D", "config": {"name": "block_10_depthwise", "trainable": false, "dtype": "float32", "kernel_size": [3, 3], "strides": [1, 1], "padding": "same", "data_format": "channels_last", "dilation_rate": [1, 1], "groups": 1, "activation": "linear", "use_bias": false, "bias_initializer": {"class_name": "Zeros", "config": {}, "shared_object_id": 290}, "bias_regularizer": null, "activity_regularizer": null, "bias_constraint": null, "depth_multiplier": 1, "depthwise_initializer": {"class_name": "GlorotUniform", "config": {"seed": null}, "shared_object_id": 291}, "depthwise_regularizer": null, "depthwise_constraint": null}, "name": "block_10_depthwise", "inbound_nodes": [[["block_10_expand_relu", 0, 0, {}]]], "shared_object_id": 292}, {"class_name": "BatchNormalization", "config": {"name": "block_10_depthwise_BN", "trainable": false, "dtype": "float32", "axis": [3], "momentum": 0.999, "epsilon": 0.001, "center": true, "scale": true, "beta_initializer": {"class_name": "Zeros", "config": {}, "shared_object_id": 293}, "gamma_initializer": {"class_name": "Ones", "config": {}, "shared_object_id": 294}, "moving_mean_initializer": {"class_name": "Zeros", "config": {}, "shared_object_id": 295}, "moving_variance_initializer": {"class_name": "Ones", "config": {}, "shared_object_id": 296}, "beta_regularizer": null, "gamma_regularizer": null, "beta_constraint": null, "gamma_constraint": null}, "name": "block_10_depthwise_BN", "inbound_nodes": [[["block_10_depthwise", 0, 0, {}]]], "shared_object_id": 297}, {"class_name": "ReLU", "config": {"name": "block_10_depthwise_relu", "trainable": false, "dtype": "float32", "max_value": 6.0, "negative_slope": 0.0, "threshold": 0.0}, "name": "block_10_depthwise_relu", "inbound_nodes": [[["block_10_depthwise_BN", 0, 0, {}]]], "shared_object_id": 298}, {"class_name": "Conv2D", "config": {"name": "block_10_project", "trainable": false, "dtype": "float32", "filters": 96, "kernel_size": [1, 1], "strides": [1, 1], "padding": "same", "data_format": "channels_last", "dilation_rate": [1, 1], "groups": 1, "activation": "linear", "use_bias": false, "kernel_initializer": {"class_name": "GlorotUniform", "config": {"seed": null}, "shared_object_id": 299}, "bias_initializer": {"class_name": "Zeros", "config": {}, "shared_object_id": 300}, "kernel_regularizer": null, "bias_regularizer": null, "activity_regularizer": null, "kernel_constraint": null, "bias_constraint": null}, "name": "block_10_project", "inbound_nodes": [[["block_10_depthwise_relu", 0, 0, {}]]], "shared_object_id": 301}, {"class_name": "BatchNormalization", "config": {"name": "block_10_project_BN", "trainable": false, "dtype": "float32", "axis": [3], "momentum": 0.999, "epsilon": 0.001, "center": true, "scale": true, "beta_initializer": {"class_name": "Zeros", "config": {}, "shared_object_id": 302}, "gamma_initializer": {"class_name": "Ones", "config": {}, "shared_object_id": 303}, "moving_mean_initializer": {"class_name": "Zeros", "config": {}, "shared_object_id": 304}, "moving_variance_initializer": {"class_name": "Ones", "config": {}, "shared_object_id": 305}, "beta_regularizer": null, "gamma_regularizer": null, "beta_constraint": null, "gamma_constraint": null}, "name": "block_10_project_BN", "inbound_nodes": [[["block_10_project", 0, 0, {}]]], "shared_object_id": 306}, {"class_name": "Conv2D", "config": {"name": "block_11_expand", "trainable": false, "dtype": "float32", "filters": 576, "kernel_size": [1, 1], "strides": [1, 1], "padding": "same", "data_format": "channels_last", "dilation_rate": [1, 1], "groups": 1, "activation": "linear", "use_bias": false, "kernel_initializer": {"class_name": "GlorotUniform", "config": {"seed": null}, "shared_object_id": 307}, "bias_initializer": {"class_name": "Zeros", "config": {}, "shared_object_id": 308}, "kernel_regularizer": null, "bias_regularizer": null, "activity_regularizer": null, "kernel_constraint": null, "bias_constraint": null}, "name": "block_11_expand", "inbound_nodes": [[["block_10_project_BN", 0, 0, {}]]], "shared_object_id": 309}, {"class_name": "BatchNormalization", "config": {"name": "block_11_expand_BN", "trainable": false, "dtype": "float32", "axis": [3], "momentum": 0.999, "epsilon": 0.001, "center": true, "scale": true, "beta_initializer": {"class_name": "Zeros", "config": {}, "shared_object_id": 310}, "gamma_initializer": {"class_name": "Ones", "config": {}, "shared_object_id": 311}, "moving_mean_initializer": {"class_name": "Zeros", "config": {}, "shared_object_id": 312}, "moving_variance_initializer": {"class_name": "Ones", "config": {}, "shared_object_id": 313}, "beta_regularizer": null, "gamma_regularizer": null, "beta_constraint": null, "gamma_constraint": null}, "name": "block_11_expand_BN", "inbound_nodes": [[["block_11_expand", 0, 0, {}]]], "shared_object_id": 314}, {"class_name": "ReLU", "config": {"name": "block_11_expand_relu", "trainable": false, "dtype": "float32", "max_value": 6.0, "negative_slope": 0.0, "threshold": 0.0}, "name": "block_11_expand_relu", "inbound_nodes": [[["block_11_expand_BN", 0, 0, {}]]], "shared_object_id": 315}, {"class_name": "DepthwiseConv2D", "config": {"name": "block_11_depthwise", "trainable": false, "dtype": "float32", "kernel_size": [3, 3], "strides": [1, 1], "padding": "same", "data_format": "channels_last", "dilation_rate": [1, 1], "groups": 1, "activation": "linear", "use_bias": false, "bias_initializer": {"class_name": "Zeros", "config": {}, "shared_object_id": 317}, "bias_regularizer": null, "activity_regularizer": null, "bias_constraint": null, "depth_multiplier": 1, "depthwise_initializer": {"class_name": "GlorotUniform", "config": {"seed": null}, "shared_object_id": 318}, "depthwise_regularizer": null, "depthwise_constraint": null}, "name": "block_11_depthwise", "inbound_nodes": [[["block_11_expand_relu", 0, 0, {}]]], "shared_object_id": 319}, {"class_name": "BatchNormalization", "config": {"name": "block_11_depthwise_BN", "trainable": false, "dtype": "float32", "axis": [3], "momentum": 0.999, "epsilon": 0.001, "center": true, "scale": true, "beta_initializer": {"class_name": "Zeros", "config": {}, "shared_object_id": 320}, "gamma_initializer": {"class_name": "Ones", "config": {}, "shared_object_id": 321}, "moving_mean_initializer": {"class_name": "Zeros", "config": {}, "shared_object_id": 322}, "moving_variance_initializer": {"class_name": "Ones", "config": {}, "shared_object_id": 323}, "beta_regularizer": null, "gamma_regularizer": null, "beta_constraint": null, "gamma_constraint": null}, "name": "block_11_depthwise_BN", "inbound_nodes": [[["block_11_depthwise", 0, 0, {}]]], "shared_object_id": 324}, {"class_name": "ReLU", "config": {"name": "block_11_depthwise_relu", "trainable": false, "dtype": "float32", "max_value": 6.0, "negative_slope": 0.0, "threshold": 0.0}, "name": "block_11_depthwise_relu", "inbound_nodes": [[["block_11_depthwise_BN", 0, 0, {}]]], "shared_object_id": 325}, {"class_name": "Conv2D", "config": {"name": "block_11_project", "trainable": false, "dtype": "float32", "filters": 96, "kernel_size": [1, 1], "strides": [1, 1], "padding": "same", "data_format": "channels_last", "dilation_rate": [1, 1], "groups": 1, "activation": "linear", "use_bias": false, "kernel_initializer": {"class_name": "GlorotUniform", "config": {"seed": null}, "shared_object_id": 326}, "bias_initializer": {"class_name": "Zeros", "config": {}, "shared_object_id": 327}, "kernel_regularizer": null, "bias_regularizer": null, "activity_regularizer": null, "kernel_constraint": null, "bias_constraint": null}, "name": "block_11_project", "inbound_nodes": [[["block_11_depthwise_relu", 0, 0, {}]]], "shared_object_id": 328}, {"class_name": "BatchNormalization", "config": {"name": "block_11_project_BN", "trainable": false, "dtype": "float32", "axis": [3], "momentum": 0.999, "epsilon": 0.001, "center": true, "scale": true, "beta_initializer": {"class_name": "Zeros", "config": {}, "shared_object_id": 329}, "gamma_initializer": {"class_name": "Ones", "config": {}, "shared_object_id": 330}, "moving_mean_initializer": {"class_name": "Zeros", "config": {}, "shared_object_id": 331}, "moving_variance_initializer": {"class_name": "Ones", "config": {}, "shared_object_id": 332}, "beta_regularizer": null, "gamma_regularizer": null, "beta_constraint": null, "gamma_constraint": null}, "name": "block_11_project_BN", "inbound_nodes": [[["block_11_project", 0, 0, {}]]], "shared_object_id": 333}, {"class_name": "Add", "config": {"name": "block_11_add", "trainable": false, "dtype": "float32"}, "name": "block_11_add", "inbound_nodes": [[["block_10_project_BN", 0, 0, {}], ["block_11_project_BN", 0, 0, {}]]], "shared_object_id": 334}, {"class_name": "Conv2D", "config": {"name": "block_12_expand", "trainable": false, "dtype": "float32", "filters": 576, "kernel_size": [1, 1], "strides": [1, 1], "padding": "same", "data_format": "channels_last", "dilation_rate": [1, 1], "groups": 1, "activation": "linear", "use_bias": false, "kernel_initializer": {"class_name": "GlorotUniform", "config": {"seed": null}, "shared_object_id": 335}, "bias_initializer": {"class_name": "Zeros", "config": {}, "shared_object_id": 336}, "kernel_regularizer": null, "bias_regularizer": null, "activity_regularizer": null, "kernel_constraint": null, "bias_constraint": null}, "name": "block_12_expand", "inbound_nodes": [[["block_11_add", 0, 0, {}]]], "shared_object_id": 337}, {"class_name": "BatchNormalization", "config": {"name": "block_12_expand_BN", "trainable": false, "dtype": "float32", "axis": [3], "momentum": 0.999, "epsilon": 0.001, "center": true, "scale": true, "beta_initializer": {"class_name": "Zeros", "config": {}, "shared_object_id": 338}, "gamma_initializer": {"class_name": "Ones", "config": {}, "shared_object_id": 339}, "moving_mean_initializer": {"class_name": "Zeros", "config": {}, "shared_object_id": 340}, "moving_variance_initializer": {"class_name": "Ones", "config": {}, "shared_object_id": 341}, "beta_regularizer": null, "gamma_regularizer": null, "beta_constraint": null, "gamma_constraint": null}, "name": "block_12_expand_BN", "inbound_nodes": [[["block_12_expand", 0, 0, {}]]], "shared_object_id": 342}, {"class_name": "ReLU", "config": {"name": "block_12_expand_relu", "trainable": false, "dtype": "float32", "max_value": 6.0, "negative_slope": 0.0, "threshold": 0.0}, "name": "block_12_expand_relu", "inbound_nodes": [[["block_12_expand_BN", 0, 0, {}]]], "shared_object_id": 343}, {"class_name": "DepthwiseConv2D", "config": {"name": "block_12_depthwise", "trainable": false, "dtype": "float32", "kernel_size": [3, 3], "strides": [1, 1], "padding": "same", "data_format": "channels_last", "dilation_rate": [1, 1], "groups": 1, "activation": "linear", "use_bias": false, "bias_initializer": {"class_name": "Zeros", "config": {}, "shared_object_id": 345}, "bias_regularizer": null, "activity_regularizer": null, "bias_constraint": null, "depth_multiplier": 1, "depthwise_initializer": {"class_name": "GlorotUniform", "config": {"seed": null}, "shared_object_id": 346}, "depthwise_regularizer": null, "depthwise_constraint": null}, "name": "block_12_depthwise", "inbound_nodes": [[["block_12_expand_relu", 0, 0, {}]]], "shared_object_id": 347}, {"class_name": "BatchNormalization", "config": {"name": "block_12_depthwise_BN", "trainable": false, "dtype": "float32", "axis": [3], "momentum": 0.999, "epsilon": 0.001, "center": true, "scale": true, "beta_initializer": {"class_name": "Zeros", "config": {}, "shared_object_id": 348}, "gamma_initializer": {"class_name": "Ones", "config": {}, "shared_object_id": 349}, "moving_mean_initializer": {"class_name": "Zeros", "config": {}, "shared_object_id": 350}, "moving_variance_initializer": {"class_name": "Ones", "config": {}, "shared_object_id": 351}, "beta_regularizer": null, "gamma_regularizer": null, "beta_constraint": null, "gamma_constraint": null}, "name": "block_12_depthwise_BN", "inbound_nodes": [[["block_12_depthwise", 0, 0, {}]]], "shared_object_id": 352}, {"class_name": "ReLU", "config": {"name": "block_12_depthwise_relu", "trainable": false, "dtype": "float32", "max_value": 6.0, "negative_slope": 0.0, "threshold": 0.0}, "name": "block_12_depthwise_relu", "inbound_nodes": [[["block_12_depthwise_BN", 0, 0, {}]]], "shared_object_id": 353}, {"class_name": "Conv2D", "config": {"name": "block_12_project", "trainable": false, "dtype": "float32", "filters": 96, "kernel_size": [1, 1], "strides": [1, 1], "padding": "same", "data_format": "channels_last", "dilation_rate": [1, 1], "groups": 1, "activation": "linear", "use_bias": false, "kernel_initializer": {"class_name": "GlorotUniform", "config": {"seed": null}, "shared_object_id": 354}, "bias_initializer": {"class_name": "Zeros", "config": {}, "shared_object_id": 355}, "kernel_regularizer": null, "bias_regularizer": null, "activity_regularizer": null, "kernel_constraint": null, "bias_constraint": null}, "name": "block_12_project", "inbound_nodes": [[["block_12_depthwise_relu", 0, 0, {}]]], "shared_object_id": 356}, {"class_name": "BatchNormalization", "config": {"name": "block_12_project_BN", "trainable": false, "dtype": "float32", "axis": [3], "momentum": 0.999, "epsilon": 0.001, "center": true, "scale": true, "beta_initializer": {"class_name": "Zeros", "config": {}, "shared_object_id": 357}, "gamma_initializer": {"class_name": "Ones", "config": {}, "shared_object_id": 358}, "moving_mean_initializer": {"class_name": "Zeros", "config": {}, "shared_object_id": 359}, "moving_variance_initializer": {"class_name": "Ones", "config": {}, "shared_object_id": 360}, "beta_regularizer": null, "gamma_regularizer": null, "beta_constraint": null, "gamma_constraint": null}, "name": "block_12_project_BN", "inbound_nodes": [[["block_12_project", 0, 0, {}]]], "shared_object_id": 361}, {"class_name": "Add", "config": {"name": "block_12_add", "trainable": false, "dtype": "float32"}, "name": "block_12_add", "inbound_nodes": [[["block_11_add", 0, 0, {}], ["block_12_project_BN", 0, 0, {}]]], "shared_object_id": 362}, {"class_name": "Conv2D", "config": {"name": "block_13_expand", "trainable": false, "dtype": "float32", "filters": 576, "kernel_size": [1, 1], "strides": [1, 1], "padding": "same", "data_format": "channels_last", "dilation_rate": [1, 1], "groups": 1, "activation": "linear", "use_bias": false, "kernel_initializer": {"class_name": "GlorotUniform", "config": {"seed": null}, "shared_object_id": 363}, "bias_initializer": {"class_name": "Zeros", "config": {}, "shared_object_id": 364}, "kernel_regularizer": null, "bias_regularizer": null, "activity_regularizer": null, "kernel_constraint": null, "bias_constraint": null}, "name": "block_13_expand", "inbound_nodes": [[["block_12_add", 0, 0, {}]]], "shared_object_id": 365}, {"class_name": "BatchNormalization", "config": {"name": "block_13_expand_BN", "trainable": false, "dtype": "float32", "axis": [3], "momentum": 0.999, "epsilon": 0.001, "center": true, "scale": true, "beta_initializer": {"class_name": "Zeros", "config": {}, "shared_object_id": 366}, "gamma_initializer": {"class_name": "Ones", "config": {}, "shared_object_id": 367}, "moving_mean_initializer": {"class_name": "Zeros", "config": {}, "shared_object_id": 368}, "moving_variance_initializer": {"class_name": "Ones", "config": {}, "shared_object_id": 369}, "beta_regularizer": null, "gamma_regularizer": null, "beta_constraint": null, "gamma_constraint": null}, "name": "block_13_expand_BN", "inbound_nodes": [[["block_13_expand", 0, 0, {}]]], "shared_object_id": 370}, {"class_name": "ReLU", "config": {"name": "block_13_expand_relu", "trainable": false, "dtype": "float32", "max_value": 6.0, "negative_slope": 0.0, "threshold": 0.0}, "name": "block_13_expand_relu", "inbound_nodes": [[["block_13_expand_BN", 0, 0, {}]]], "shared_object_id": 371}, {"class_name": "ZeroPadding2D", "config": {"name": "block_13_pad", "trainable": false, "dtype": "float32", "padding": [[0, 1], [0, 1]], "data_format": "channels_last"}, "name": "block_13_pad", "inbound_nodes": [[["block_13_expand_relu", 0, 0, {}]]], "shared_object_id": 372}, {"class_name": "DepthwiseConv2D", "config": {"name": "block_13_depthwise", "trainable": false, "dtype": "float32", "kernel_size": [3, 3], "strides": [2, 2], "padding": "valid", "data_format": "channels_last", "dilation_rate": [1, 1], "groups": 1, "activation": "linear", "use_bias": false, "bias_initializer": {"class_name": "Zeros", "config": {}, "shared_object_id": 374}, "bias_regularizer": null, "activity_regularizer": null, "bias_constraint": null, "depth_multiplier": 1, "depthwise_initializer": {"class_name": "GlorotUniform", "config": {"seed": null}, "shared_object_id": 375}, "depthwise_regularizer": null, "depthwise_constraint": null}, "name": "block_13_depthwise", "inbound_nodes": [[["block_13_pad", 0, 0, {}]]], "shared_object_id": 376}, {"class_name": "BatchNormalization", "config": {"name": "block_13_depthwise_BN", "trainable": false, "dtype": "float32", "axis": [3], "momentum": 0.999, "epsilon": 0.001, "center": true, "scale": true, "beta_initializer": {"class_name": "Zeros", "config": {}, "shared_object_id": 377}, "gamma_initializer": {"class_name": "Ones", "config": {}, "shared_object_id": 378}, "moving_mean_initializer": {"class_name": "Zeros", "config": {}, "shared_object_id": 379}, "moving_variance_initializer": {"class_name": "Ones", "config": {}, "shared_object_id": 380}, "beta_regularizer": null, "gamma_regularizer": null, "beta_constraint": null, "gamma_constraint": null}, "name": "block_13_depthwise_BN", "inbound_nodes": [[["block_13_depthwise", 0, 0, {}]]], "shared_object_id": 381}, {"class_name": "ReLU", "config": {"name": "block_13_depthwise_relu", "trainable": false, "dtype": "float32", "max_value": 6.0, "negative_slope": 0.0, "threshold": 0.0}, "name": "block_13_depthwise_relu", "inbound_nodes": [[["block_13_depthwise_BN", 0, 0, {}]]], "shared_object_id": 382}, {"class_name": "Conv2D", "config": {"name": "block_13_project", "trainable": false, "dtype": "float32", "filters": 160, "kernel_size": [1, 1], "strides": [1, 1], "padding": "same", "data_format": "channels_last", "dilation_rate": [1, 1], "groups": 1, "activation": "linear", "use_bias": false, "kernel_initializer": {"class_name": "GlorotUniform", "config": {"seed": null}, "shared_object_id": 383}, "bias_initializer": {"class_name": "Zeros", "config": {}, "shared_object_id": 384}, "kernel_regularizer": null, "bias_regularizer": null, "activity_regularizer": null, "kernel_constraint": null, "bias_constraint": null}, "name": "block_13_project", "inbound_nodes": [[["block_13_depthwise_relu", 0, 0, {}]]], "shared_object_id": 385}, {"class_name": "BatchNormalization", "config": {"name": "block_13_project_BN", "trainable": true, "dtype": "float32", "axis": [3], "momentum": 0.999, "epsilon": 0.001, "center": true, "scale": true, "beta_initializer": {"class_name": "Zeros", "config": {}, "shared_object_id": 386}, "gamma_initializer": {"class_name": "Ones", "config": {}, "shared_object_id": 387}, "moving_mean_initializer": {"class_name": "Zeros", "config": {}, "shared_object_id": 388}, "moving_variance_initializer": {"class_name": "Ones", "config": {}, "shared_object_id": 389}, "beta_regularizer": null, "gamma_regularizer": null, "beta_constraint": null, "gamma_constraint": null}, "name": "block_13_project_BN", "inbound_nodes": [[["block_13_project", 0, 0, {}]]], "shared_object_id": 390}, {"class_name": "Conv2D", "config": {"name": "block_14_expand", "trainable": true, "dtype": "float32", "filters": 960, "kernel_size": [1, 1], "strides": [1, 1], "padding": "same", "data_format": "channels_last", "dilation_rate": [1, 1], "groups": 1, "activation": "linear", "use_bias": false, "kernel_initializer": {"class_name": "GlorotUniform", "config": {"seed": null}, "shared_object_id": 391}, "bias_initializer": {"class_name": "Zeros", "config": {}, "shared_object_id": 392}, "kernel_regularizer": null, "bias_regularizer": null, "activity_regularizer": null, "kernel_constraint": null, "bias_constraint": null}, "name": "block_14_expand", "inbound_nodes": [[["block_13_project_BN", 0, 0, {}]]], "shared_object_id": 393}, {"class_name": "BatchNormalization", "config": {"name": "block_14_expand_BN", "trainable": true, "dtype": "float32", "axis": [3], "momentum": 0.999, "epsilon": 0.001, "center": true, "scale": true, "beta_initializer": {"class_name": "Zeros", "config": {}, "shared_object_id": 394}, "gamma_initializer": {"class_name": "Ones", "config": {}, "shared_object_id": 395}, "moving_mean_initializer": {"class_name": "Zeros", "config": {}, "shared_object_id": 396}, "moving_variance_initializer": {"class_name": "Ones", "config": {}, "shared_object_id": 397}, "beta_regularizer": null, "gamma_regularizer": null, "beta_constraint": null, "gamma_constraint": null}, "name": "block_14_expand_BN", "inbound_nodes": [[["block_14_expand", 0, 0, {}]]], "shared_object_id": 398}, {"class_name": "ReLU", "config": {"name": "block_14_expand_relu", "trainable": true, "dtype": "float32", "max_value": 6.0, "negative_slope": 0.0, "threshold": 0.0}, "name": "block_14_expand_relu", "inbound_nodes": [[["block_14_expand_BN", 0, 0, {}]]], "shared_object_id": 399}, {"class_name": "DepthwiseConv2D", "config": {"name": "block_14_depthwise", "trainable": true, "dtype": "float32", "kernel_size": [3, 3], "strides": [1, 1], "padding": "same", "data_format": "channels_last", "dilation_rate": [1, 1], "groups": 1, "activation": "linear", "use_bias": false, "bias_initializer": {"class_name": "Zeros", "config": {}, "shared_object_id": 401}, "bias_regularizer": null, "activity_regularizer": null, "bias_constraint": null, "depth_multiplier": 1, "depthwise_initializer": {"class_name": "GlorotUniform", "config": {"seed": null}, "shared_object_id": 402}, "depthwise_regularizer": null, "depthwise_constraint": null}, "name": "block_14_depthwise", "inbound_nodes": [[["block_14_expand_relu", 0, 0, {}]]], "shared_object_id": 403}, {"class_name": "BatchNormalization", "config": {"name": "block_14_depthwise_BN", "trainable": true, "dtype": "float32", "axis": [3], "momentum": 0.999, "epsilon": 0.001, "center": true, "scale": true, "beta_initializer": {"class_name": "Zeros", "config": {}, "shared_object_id": 404}, "gamma_initializer": {"class_name": "Ones", "config": {}, "shared_object_id": 405}, "moving_mean_initializer": {"class_name": "Zeros", "config": {}, "shared_object_id": 406}, "moving_variance_initializer": {"class_name": "Ones", "config": {}, "shared_object_id": 407}, "beta_regularizer": null, "gamma_regularizer": null, "beta_constraint": null, "gamma_constraint": null}, "name": "block_14_depthwise_BN", "inbound_nodes": [[["block_14_depthwise", 0, 0, {}]]], "shared_object_id": 408}, {"class_name": "ReLU", "config": {"name": "block_14_depthwise_relu", "trainable": true, "dtype": "float32", "max_value": 6.0, "negative_slope": 0.0, "threshold": 0.0}, "name": "block_14_depthwise_relu", "inbound_nodes": [[["block_14_depthwise_BN", 0, 0, {}]]], "shared_object_id": 409}, {"class_name": "Conv2D", "config": {"name": "block_14_project", "trainable": true, "dtype": "float32", "filters": 160, "kernel_size": [1, 1], "strides": [1, 1], "padding": "same", "data_format": "channels_last", "dilation_rate": [1, 1], "groups": 1, "activation": "linear", "use_bias": false, "kernel_initializer": {"class_name": "GlorotUniform", "config": {"seed": null}, "shared_object_id": 410}, "bias_initializer": {"class_name": "Zeros", "config": {}, "shared_object_id": 411}, "kernel_regularizer": null, "bias_regularizer": null, "activity_regularizer": null, "kernel_constraint": null, "bias_constraint": null}, "name": "block_14_project", "inbound_nodes": [[["block_14_depthwise_relu", 0, 0, {}]]], "shared_object_id": 412}, {"class_name": "BatchNormalization", "config": {"name": "block_14_project_BN", "trainable": true, "dtype": "float32", "axis": [3], "momentum": 0.999, "epsilon": 0.001, "center": true, "scale": true, "beta_initializer": {"class_name": "Zeros", "config": {}, "shared_object_id": 413}, "gamma_initializer": {"class_name": "Ones", "config": {}, "shared_object_id": 414}, "moving_mean_initializer": {"class_name": "Zeros", "config": {}, "shared_object_id": 415}, "moving_variance_initializer": {"class_name": "Ones", "config": {}, "shared_object_id": 416}, "beta_regularizer": null, "gamma_regularizer": null, "beta_constraint": null, "gamma_constraint": null}, "name": "block_14_project_BN", "inbound_nodes": [[["block_14_project", 0, 0, {}]]], "shared_object_id": 417}, {"class_name": "Add", "config": {"name": "block_14_add", "trainable": true, "dtype": "float32"}, "name": "block_14_add", "inbound_nodes": [[["block_13_project_BN", 0, 0, {}], ["block_14_project_BN", 0, 0, {}]]], "shared_object_id": 418}, {"class_name": "Conv2D", "config": {"name": "block_15_expand", "trainable": true, "dtype": "float32", "filters": 960, "kernel_size": [1, 1], "strides": [1, 1], "padding": "same", "data_format": "channels_last", "dilation_rate": [1, 1], "groups": 1, "activation": "linear", "use_bias": false, "kernel_initializer": {"class_name": "GlorotUniform", "config": {"seed": null}, "shared_object_id": 419}, "bias_initializer": {"class_name": "Zeros", "config": {}, "shared_object_id": 420}, "kernel_regularizer": null, "bias_regularizer": null, "activity_regularizer": null, "kernel_constraint": null, "bias_constraint": null}, "name": "block_15_expand", "inbound_nodes": [[["block_14_add", 0, 0, {}]]], "shared_object_id": 421}, {"class_name": "BatchNormalization", "config": {"name": "block_15_expand_BN", "trainable": true, "dtype": "float32", "axis": [3], "momentum": 0.999, "epsilon": 0.001, "center": true, "scale": true, "beta_initializer": {"class_name": "Zeros", "config": {}, "shared_object_id": 422}, "gamma_initializer": {"class_name": "Ones", "config": {}, "shared_object_id": 423}, "moving_mean_initializer": {"class_name": "Zeros", "config": {}, "shared_object_id": 424}, "moving_variance_initializer": {"class_name": "Ones", "config": {}, "shared_object_id": 425}, "beta_regularizer": null, "gamma_regularizer": null, "beta_constraint": null, "gamma_constraint": null}, "name": "block_15_expand_BN", "inbound_nodes": [[["block_15_expand", 0, 0, {}]]], "shared_object_id": 426}, {"class_name": "ReLU", "config": {"name": "block_15_expand_relu", "trainable": true, "dtype": "float32", "max_value": 6.0, "negative_slope": 0.0, "threshold": 0.0}, "name": "block_15_expand_relu", "inbound_nodes": [[["block_15_expand_BN", 0, 0, {}]]], "shared_object_id": 427}, {"class_name": "DepthwiseConv2D", "config": {"name": "block_15_depthwise", "trainable": true, "dtype": "float32", "kernel_size": [3, 3], "strides": [1, 1], "padding": "same", "data_format": "channels_last", "dilation_rate": [1, 1], "groups": 1, "activation": "linear", "use_bias": false, "bias_initializer": {"class_name": "Zeros", "config": {}, "shared_object_id": 429}, "bias_regularizer": null, "activity_regularizer": null, "bias_constraint": null, "depth_multiplier": 1, "depthwise_initializer": {"class_name": "GlorotUniform", "config": {"seed": null}, "shared_object_id": 430}, "depthwise_regularizer": null, "depthwise_constraint": null}, "name": "block_15_depthwise", "inbound_nodes": [[["block_15_expand_relu", 0, 0, {}]]], "shared_object_id": 431}, {"class_name": "BatchNormalization", "config": {"name": "block_15_depthwise_BN", "trainable": true, "dtype": "float32", "axis": [3], "momentum": 0.999, "epsilon": 0.001, "center": true, "scale": true, "beta_initializer": {"class_name": "Zeros", "config": {}, "shared_object_id": 432}, "gamma_initializer": {"class_name": "Ones", "config": {}, "shared_object_id": 433}, "moving_mean_initializer": {"class_name": "Zeros", "config": {}, "shared_object_id": 434}, "moving_variance_initializer": {"class_name": "Ones", "config": {}, "shared_object_id": 435}, "beta_regularizer": null, "gamma_regularizer": null, "beta_constraint": null, "gamma_constraint": null}, "name": "block_15_depthwise_BN", "inbound_nodes": [[["block_15_depthwise", 0, 0, {}]]], "shared_object_id": 436}, {"class_name": "ReLU", "config": {"name": "block_15_depthwise_relu", "trainable": true, "dtype": "float32", "max_value": 6.0, "negative_slope": 0.0, "threshold": 0.0}, "name": "block_15_depthwise_relu", "inbound_nodes": [[["block_15_depthwise_BN", 0, 0, {}]]], "shared_object_id": 437}, {"class_name": "Conv2D", "config": {"name": "block_15_project", "trainable": true, "dtype": "float32", "filters": 160, "kernel_size": [1, 1], "strides": [1, 1], "padding": "same", "data_format": "channels_last", "dilation_rate": [1, 1], "groups": 1, "activation": "linear", "use_bias": false, "kernel_initializer": {"class_name": "GlorotUniform", "config": {"seed": null}, "shared_object_id": 438}, "bias_initializer": {"class_name": "Zeros", "config": {}, "shared_object_id": 439}, "kernel_regularizer": null, "bias_regularizer": null, "activity_regularizer": null, "kernel_constraint": null, "bias_constraint": null}, "name": "block_15_project", "inbound_nodes": [[["block_15_depthwise_relu", 0, 0, {}]]], "shared_object_id": 440}, {"class_name": "BatchNormalization", "config": {"name": "block_15_project_BN", "trainable": true, "dtype": "float32", "axis": [3], "momentum": 0.999, "epsilon": 0.001, "center": true, "scale": true, "beta_initializer": {"class_name": "Zeros", "config": {}, "shared_object_id": 441}, "gamma_initializer": {"class_name": "Ones", "config": {}, "shared_object_id": 442}, "moving_mean_initializer": {"class_name": "Zeros", "config": {}, "shared_object_id": 443}, "moving_variance_initializer": {"class_name": "Ones", "config": {}, "shared_object_id": 444}, "beta_regularizer": null, "gamma_regularizer": null, "beta_constraint": null, "gamma_constraint": null}, "name": "block_15_project_BN", "inbound_nodes": [[["block_15_project", 0, 0, {}]]], "shared_object_id": 445}, {"class_name": "Add", "config": {"name": "block_15_add", "trainable": true, "dtype": "float32"}, "name": "block_15_add", "inbound_nodes": [[["block_14_add", 0, 0, {}], ["block_15_project_BN", 0, 0, {}]]], "shared_object_id": 446}, {"class_name": "Conv2D", "config": {"name": "block_16_expand", "trainable": true, "dtype": "float32", "filters": 960, "kernel_size": [1, 1], "strides": [1, 1], "padding": "same", "data_format": "channels_last", "dilation_rate": [1, 1], "groups": 1, "activation": "linear", "use_bias": false, "kernel_initializer": {"class_name": "GlorotUniform", "config": {"seed": null}, "shared_object_id": 447}, "bias_initializer": {"class_name": "Zeros", "config": {}, "shared_object_id": 448}, "kernel_regularizer": null, "bias_regularizer": null, "activity_regularizer": null, "kernel_constraint": null, "bias_constraint": null}, "name": "block_16_expand", "inbound_nodes": [[["block_15_add", 0, 0, {}]]], "shared_object_id": 449}, {"class_name": "BatchNormalization", "config": {"name": "block_16_expand_BN", "trainable": true, "dtype": "float32", "axis": [3], "momentum": 0.999, "epsilon": 0.001, "center": true, "scale": true, "beta_initializer": {"class_name": "Zeros", "config": {}, "shared_object_id": 450}, "gamma_initializer": {"class_name": "Ones", "config": {}, "shared_object_id": 451}, "moving_mean_initializer": {"class_name": "Zeros", "config": {}, "shared_object_id": 452}, "moving_variance_initializer": {"class_name": "Ones", "config": {}, "shared_object_id": 453}, "beta_regularizer": null, "gamma_regularizer": null, "beta_constraint": null, "gamma_constraint": null}, "name": "block_16_expand_BN", "inbound_nodes": [[["block_16_expand", 0, 0, {}]]], "shared_object_id": 454}, {"class_name": "ReLU", "config": {"name": "block_16_expand_relu", "trainable": true, "dtype": "float32", "max_value": 6.0, "negative_slope": 0.0, "threshold": 0.0}, "name": "block_16_expand_relu", "inbound_nodes": [[["block_16_expand_BN", 0, 0, {}]]], "shared_object_id": 455}, {"class_name": "DepthwiseConv2D", "config": {"name": "block_16_depthwise", "trainable": true, "dtype": "float32", "kernel_size": [3, 3], "strides": [1, 1], "padding": "same", "data_format": "channels_last", "dilation_rate": [1, 1], "groups": 1, "activation": "linear", "use_bias": false, "bias_initializer": {"class_name": "Zeros", "config": {}, "shared_object_id": 457}, "bias_regularizer": null, "activity_regularizer": null, "bias_constraint": null, "depth_multiplier": 1, "depthwise_initializer": {"class_name": "GlorotUniform", "config": {"seed": null}, "shared_object_id": 458}, "depthwise_regularizer": null, "depthwise_constraint": null}, "name": "block_16_depthwise", "inbound_nodes": [[["block_16_expand_relu", 0, 0, {}]]], "shared_object_id": 459}, {"class_name": "BatchNormalization", "config": {"name": "block_16_depthwise_BN", "trainable": true, "dtype": "float32", "axis": [3], "momentum": 0.999, "epsilon": 0.001, "center": true, "scale": true, "beta_initializer": {"class_name": "Zeros", "config": {}, "shared_object_id": 460}, "gamma_initializer": {"class_name": "Ones", "config": {}, "shared_object_id": 461}, "moving_mean_initializer": {"class_name": "Zeros", "config": {}, "shared_object_id": 462}, "moving_variance_initializer": {"class_name": "Ones", "config": {}, "shared_object_id": 463}, "beta_regularizer": null, "gamma_regularizer": null, "beta_constraint": null, "gamma_constraint": null}, "name": "block_16_depthwise_BN", "inbound_nodes": [[["block_16_depthwise", 0, 0, {}]]], "shared_object_id": 464}, {"class_name": "ReLU", "config": {"name": "block_16_depthwise_relu", "trainable": true, "dtype": "float32", "max_value": 6.0, "negative_slope": 0.0, "threshold": 0.0}, "name": "block_16_depthwise_relu", "inbound_nodes": [[["block_16_depthwise_BN", 0, 0, {}]]], "shared_object_id": 465}, {"class_name": "Conv2D", "config": {"name": "block_16_project", "trainable": true, "dtype": "float32", "filters": 320, "kernel_size": [1, 1], "strides": [1, 1], "padding": "same", "data_format": "channels_last", "dilation_rate": [1, 1], "groups": 1, "activation": "linear", "use_bias": false, "kernel_initializer": {"class_name": "GlorotUniform", "config": {"seed": null}, "shared_object_id": 466}, "bias_initializer": {"class_name": "Zeros", "config": {}, "shared_object_id": 467}, "kernel_regularizer": null, "bias_regularizer": null, "activity_regularizer": null, "kernel_constraint": null, "bias_constraint": null}, "name": "block_16_project", "inbound_nodes": [[["block_16_depthwise_relu", 0, 0, {}]]], "shared_object_id": 468}, {"class_name": "BatchNormalization", "config": {"name": "block_16_project_BN", "trainable": true, "dtype": "float32", "axis": [3], "momentum": 0.999, "epsilon": 0.001, "center": true, "scale": true, "beta_initializer": {"class_name": "Zeros", "config": {}, "shared_object_id": 469}, "gamma_initializer": {"class_name": "Ones", "config": {}, "shared_object_id": 470}, "moving_mean_initializer": {"class_name": "Zeros", "config": {}, "shared_object_id": 471}, "moving_variance_initializer": {"class_name": "Ones", "config": {}, "shared_object_id": 472}, "beta_regularizer": null, "gamma_regularizer": null, "beta_constraint": null, "gamma_constraint": null}, "name": "block_16_project_BN", "inbound_nodes": [[["block_16_project", 0, 0, {}]]], "shared_object_id": 473}, {"class_name": "Conv2D", "config": {"name": "Conv_1", "trainable": true, "dtype": "float32", "filters": 1280, "kernel_size": [1, 1], "strides": [1, 1], "padding": "valid", "data_format": "channels_last", "dilation_rate": [1, 1], "groups": 1, "activation": "linear", "use_bias": false, "kernel_initializer": {"class_name": "GlorotUniform", "config": {"seed": null}, "shared_object_id": 474}, "bias_initializer": {"class_name": "Zeros", "config": {}, "shared_object_id": 475}, "kernel_regularizer": null, "bias_regularizer": null, "activity_regularizer": null, "kernel_constraint": null, "bias_constraint": null}, "name": "Conv_1", "inbound_nodes": [[["block_16_project_BN", 0, 0, {}]]], "shared_object_id": 476}, {"class_name": "BatchNormalization", "config": {"name": "Conv_1_bn", "trainable": true, "dtype": "float32", "axis": [3], "momentum": 0.999, "epsilon": 0.001, "center": true, "scale": true, "beta_initializer": {"class_name": "Zeros", "config": {}, "shared_object_id": 477}, "gamma_initializer": {"class_name": "Ones", "config": {}, "shared_object_id": 478}, "moving_mean_initializer": {"class_name": "Zeros", "config": {}, "shared_object_id": 479}, "moving_variance_initializer": {"class_name": "Ones", "config": {}, "shared_object_id": 480}, "beta_regularizer": null, "gamma_regularizer": null, "beta_constraint": null, "gamma_constraint": null}, "name": "Conv_1_bn", "inbound_nodes": [[["Conv_1", 0, 0, {}]]], "shared_object_id": 481}, {"class_name": "ReLU", "config": {"name": "out_relu", "trainable": true, "dtype": "float32", "max_value": 6.0, "negative_slope": 0.0, "threshold": 0.0}, "name": "out_relu", "inbound_nodes": [[["Conv_1_bn", 0, 0, {}]]], "shared_object_id": 482}], "input_layers": [["input_1", 0, 0]], "output_layers": [["out_relu", 0, 0]]}, "name": "mobilenetv2_1.00_160", "inbound_nodes": []}], "input_layers": [["input_1", 0, 0]], "output_layers": [["dense_2", 0, 0]]}}'
'training_config': '{"loss": "sparse_categorical_crossentropy", "metrics": [[{"class_name": "MeanMetricWrapper", "config": {"name": "accuracy", "dtype": "float32", "fn": "sparse_categorical_accuracy"}}]], "weighted_metrics": null, "loss_weights": null, "optimizer_config": {"class_name": "Custom>Adam", "config": {"name": "Adam", "weight_decay": null, "clipnorm": null, "global_clipnorm": null, "clipvalue": null, "use_ema": false, "ema_momentum": 0.99, "ema_overwrite_frequency": null, "jit_compile": false, "is_legacy_optimizer": false, "learning_rate": 9.999999747378752e-06, "beta_1": 0.9, "beta_2": 0.999, "epsilon": 1e-07, "amsgrad": false}}}'
